{
	"weightsManifest": [{
			"paths": ["group1-shard1of1"],
			"weights": [{
					"name": "batch_normalization_1/gamma",
					"dtype": "float32",
					"shape": [1]
				}, {
					"name": "batch_normalization_1/beta",
					"dtype": "float32",
					"shape": [1]
				}, {
					"name": "batch_normalization_1/moving_mean",
					"dtype": "float32",
					"shape": [1]
				}, {
					"name": "batch_normalization_1/moving_variance",
					"dtype": "float32",
					"shape": [1]
				}
			]
		}, {
			"paths": ["group2-shard1of1"],
			"weights": [{
					"name": "batch_normalization_10/gamma",
					"dtype": "float32",
					"shape": [32]
				}, {
					"name": "batch_normalization_10/beta",
					"dtype": "float32",
					"shape": [32]
				}, {
					"name": "batch_normalization_10/moving_mean",
					"dtype": "float32",
					"shape": [32]
				}, {
					"name": "batch_normalization_10/moving_variance",
					"dtype": "float32",
					"shape": [32]
				}
			]
		}, {
			"paths": ["group3-shard1of1"],
			"weights": [{
					"name": "batch_normalization_100/gamma",
					"dtype": "float32",
					"shape": [128]
				}, {
					"name": "batch_normalization_100/beta",
					"dtype": "float32",
					"shape": [128]
				}, {
					"name": "batch_normalization_100/moving_mean",
					"dtype": "float32",
					"shape": [128]
				}, {
					"name": "batch_normalization_100/moving_variance",
					"dtype": "float32",
					"shape": [128]
				}
			]
		}, {
			"paths": ["group4-shard1of1"],
			"weights": [{
					"name": "batch_normalization_101/gamma",
					"dtype": "float32",
					"shape": [32]
				}, {
					"name": "batch_normalization_101/beta",
					"dtype": "float32",
					"shape": [32]
				}, {
					"name": "batch_normalization_101/moving_mean",
					"dtype": "float32",
					"shape": [32]
				}, {
					"name": "batch_normalization_101/moving_variance",
					"dtype": "float32",
					"shape": [32]
				}
			]
		}, {
			"paths": ["group5-shard1of1"],
			"weights": [{
					"name": "batch_normalization_102/gamma",
					"dtype": "float32",
					"shape": [32]
				}, {
					"name": "batch_normalization_102/beta",
					"dtype": "float32",
					"shape": [32]
				}, {
					"name": "batch_normalization_102/moving_mean",
					"dtype": "float32",
					"shape": [32]
				}, {
					"name": "batch_normalization_102/moving_variance",
					"dtype": "float32",
					"shape": [32]
				}
			]
		}, {
			"paths": ["group6-shard1of1"],
			"weights": [{
					"name": "batch_normalization_103/gamma",
					"dtype": "float32",
					"shape": [128]
				}, {
					"name": "batch_normalization_103/beta",
					"dtype": "float32",
					"shape": [128]
				}, {
					"name": "batch_normalization_103/moving_mean",
					"dtype": "float32",
					"shape": [128]
				}, {
					"name": "batch_normalization_103/moving_variance",
					"dtype": "float32",
					"shape": [128]
				}
			]
		}, {
			"paths": ["group7-shard1of1"],
			"weights": [{
					"name": "batch_normalization_104/gamma",
					"dtype": "float32",
					"shape": [32]
				}, {
					"name": "batch_normalization_104/beta",
					"dtype": "float32",
					"shape": [32]
				}, {
					"name": "batch_normalization_104/moving_mean",
					"dtype": "float32",
					"shape": [32]
				}, {
					"name": "batch_normalization_104/moving_variance",
					"dtype": "float32",
					"shape": [32]
				}
			]
		}, {
			"paths": ["group8-shard1of1"],
			"weights": [{
					"name": "batch_normalization_105/gamma",
					"dtype": "float32",
					"shape": [32]
				}, {
					"name": "batch_normalization_105/beta",
					"dtype": "float32",
					"shape": [32]
				}, {
					"name": "batch_normalization_105/moving_mean",
					"dtype": "float32",
					"shape": [32]
				}, {
					"name": "batch_normalization_105/moving_variance",
					"dtype": "float32",
					"shape": [32]
				}
			]
		}, {
			"paths": ["group9-shard1of1"],
			"weights": [{
					"name": "batch_normalization_106/gamma",
					"dtype": "float32",
					"shape": [128]
				}, {
					"name": "batch_normalization_106/beta",
					"dtype": "float32",
					"shape": [128]
				}, {
					"name": "batch_normalization_106/moving_mean",
					"dtype": "float32",
					"shape": [128]
				}, {
					"name": "batch_normalization_106/moving_variance",
					"dtype": "float32",
					"shape": [128]
				}
			]
		}, {
			"paths": ["group10-shard1of1"],
			"weights": [{
					"name": "batch_normalization_107/gamma",
					"dtype": "float32",
					"shape": [32]
				}, {
					"name": "batch_normalization_107/beta",
					"dtype": "float32",
					"shape": [32]
				}, {
					"name": "batch_normalization_107/moving_mean",
					"dtype": "float32",
					"shape": [32]
				}, {
					"name": "batch_normalization_107/moving_variance",
					"dtype": "float32",
					"shape": [32]
				}
			]
		}, {
			"paths": ["group11-shard1of1"],
			"weights": [{
					"name": "batch_normalization_108/gamma",
					"dtype": "float32",
					"shape": [32]
				}, {
					"name": "batch_normalization_108/beta",
					"dtype": "float32",
					"shape": [32]
				}, {
					"name": "batch_normalization_108/moving_mean",
					"dtype": "float32",
					"shape": [32]
				}, {
					"name": "batch_normalization_108/moving_variance",
					"dtype": "float32",
					"shape": [32]
				}
			]
		}, {
			"paths": ["group12-shard1of1"],
			"weights": [{
					"name": "batch_normalization_109/gamma",
					"dtype": "float32",
					"shape": [128]
				}, {
					"name": "batch_normalization_109/beta",
					"dtype": "float32",
					"shape": [128]
				}, {
					"name": "batch_normalization_109/moving_mean",
					"dtype": "float32",
					"shape": [128]
				}, {
					"name": "batch_normalization_109/moving_variance",
					"dtype": "float32",
					"shape": [128]
				}
			]
		}, {
			"paths": ["group13-shard1of1"],
			"weights": [{
					"name": "batch_normalization_11/gamma",
					"dtype": "float32",
					"shape": [8]
				}, {
					"name": "batch_normalization_11/beta",
					"dtype": "float32",
					"shape": [8]
				}, {
					"name": "batch_normalization_11/moving_mean",
					"dtype": "float32",
					"shape": [8]
				}, {
					"name": "batch_normalization_11/moving_variance",
					"dtype": "float32",
					"shape": [8]
				}
			]
		}, {
			"paths": ["group14-shard1of1"],
			"weights": [{
					"name": "batch_normalization_110/gamma",
					"dtype": "float32",
					"shape": [32]
				}, {
					"name": "batch_normalization_110/beta",
					"dtype": "float32",
					"shape": [32]
				}, {
					"name": "batch_normalization_110/moving_mean",
					"dtype": "float32",
					"shape": [32]
				}, {
					"name": "batch_normalization_110/moving_variance",
					"dtype": "float32",
					"shape": [32]
				}
			]
		}, {
			"paths": ["group15-shard1of1"],
			"weights": [{
					"name": "batch_normalization_111/gamma",
					"dtype": "float32",
					"shape": [32]
				}, {
					"name": "batch_normalization_111/beta",
					"dtype": "float32",
					"shape": [32]
				}, {
					"name": "batch_normalization_111/moving_mean",
					"dtype": "float32",
					"shape": [32]
				}, {
					"name": "batch_normalization_111/moving_variance",
					"dtype": "float32",
					"shape": [32]
				}
			]
		}, {
			"paths": ["group16-shard1of1"],
			"weights": [{
					"name": "batch_normalization_112/gamma",
					"dtype": "float32",
					"shape": [128]
				}, {
					"name": "batch_normalization_112/beta",
					"dtype": "float32",
					"shape": [128]
				}, {
					"name": "batch_normalization_112/moving_mean",
					"dtype": "float32",
					"shape": [128]
				}, {
					"name": "batch_normalization_112/moving_variance",
					"dtype": "float32",
					"shape": [128]
				}
			]
		}, {
			"paths": ["group17-shard1of1"],
			"weights": [{
					"name": "batch_normalization_113/gamma",
					"dtype": "float32",
					"shape": [32]
				}, {
					"name": "batch_normalization_113/beta",
					"dtype": "float32",
					"shape": [32]
				}, {
					"name": "batch_normalization_113/moving_mean",
					"dtype": "float32",
					"shape": [32]
				}, {
					"name": "batch_normalization_113/moving_variance",
					"dtype": "float32",
					"shape": [32]
				}
			]
		}, {
			"paths": ["group18-shard1of1"],
			"weights": [{
					"name": "batch_normalization_114/gamma",
					"dtype": "float32",
					"shape": [32]
				}, {
					"name": "batch_normalization_114/beta",
					"dtype": "float32",
					"shape": [32]
				}, {
					"name": "batch_normalization_114/moving_mean",
					"dtype": "float32",
					"shape": [32]
				}, {
					"name": "batch_normalization_114/moving_variance",
					"dtype": "float32",
					"shape": [32]
				}
			]
		}, {
			"paths": ["group19-shard1of1"],
			"weights": [{
					"name": "batch_normalization_115/gamma",
					"dtype": "float32",
					"shape": [128]
				}, {
					"name": "batch_normalization_115/beta",
					"dtype": "float32",
					"shape": [128]
				}, {
					"name": "batch_normalization_115/moving_mean",
					"dtype": "float32",
					"shape": [128]
				}, {
					"name": "batch_normalization_115/moving_variance",
					"dtype": "float32",
					"shape": [128]
				}
			]
		}, {
			"paths": ["group20-shard1of1"],
			"weights": [{
					"name": "batch_normalization_116/gamma",
					"dtype": "float32",
					"shape": [32]
				}, {
					"name": "batch_normalization_116/beta",
					"dtype": "float32",
					"shape": [32]
				}, {
					"name": "batch_normalization_116/moving_mean",
					"dtype": "float32",
					"shape": [32]
				}, {
					"name": "batch_normalization_116/moving_variance",
					"dtype": "float32",
					"shape": [32]
				}
			]
		}, {
			"paths": ["group21-shard1of1"],
			"weights": [{
					"name": "batch_normalization_117/gamma",
					"dtype": "float32",
					"shape": [32]
				}, {
					"name": "batch_normalization_117/beta",
					"dtype": "float32",
					"shape": [32]
				}, {
					"name": "batch_normalization_117/moving_mean",
					"dtype": "float32",
					"shape": [32]
				}, {
					"name": "batch_normalization_117/moving_variance",
					"dtype": "float32",
					"shape": [32]
				}
			]
		}, {
			"paths": ["group22-shard1of1"],
			"weights": [{
					"name": "batch_normalization_118/gamma",
					"dtype": "float32",
					"shape": [128]
				}, {
					"name": "batch_normalization_118/beta",
					"dtype": "float32",
					"shape": [128]
				}, {
					"name": "batch_normalization_118/moving_mean",
					"dtype": "float32",
					"shape": [128]
				}, {
					"name": "batch_normalization_118/moving_variance",
					"dtype": "float32",
					"shape": [128]
				}
			]
		}, {
			"paths": ["group23-shard1of1"],
			"weights": [{
					"name": "batch_normalization_119/gamma",
					"dtype": "float32",
					"shape": [32]
				}, {
					"name": "batch_normalization_119/beta",
					"dtype": "float32",
					"shape": [32]
				}, {
					"name": "batch_normalization_119/moving_mean",
					"dtype": "float32",
					"shape": [32]
				}, {
					"name": "batch_normalization_119/moving_variance",
					"dtype": "float32",
					"shape": [32]
				}
			]
		}, {
			"paths": ["group24-shard1of1"],
			"weights": [{
					"name": "batch_normalization_12/gamma",
					"dtype": "float32",
					"shape": [8]
				}, {
					"name": "batch_normalization_12/beta",
					"dtype": "float32",
					"shape": [8]
				}, {
					"name": "batch_normalization_12/moving_mean",
					"dtype": "float32",
					"shape": [8]
				}, {
					"name": "batch_normalization_12/moving_variance",
					"dtype": "float32",
					"shape": [8]
				}
			]
		}, {
			"paths": ["group25-shard1of1"],
			"weights": [{
					"name": "batch_normalization_120/gamma",
					"dtype": "float32",
					"shape": [32]
				}, {
					"name": "batch_normalization_120/beta",
					"dtype": "float32",
					"shape": [32]
				}, {
					"name": "batch_normalization_120/moving_mean",
					"dtype": "float32",
					"shape": [32]
				}, {
					"name": "batch_normalization_120/moving_variance",
					"dtype": "float32",
					"shape": [32]
				}
			]
		}, {
			"paths": ["group26-shard1of1"],
			"weights": [{
					"name": "batch_normalization_121/gamma",
					"dtype": "float32",
					"shape": [128]
				}, {
					"name": "batch_normalization_121/beta",
					"dtype": "float32",
					"shape": [128]
				}, {
					"name": "batch_normalization_121/moving_mean",
					"dtype": "float32",
					"shape": [128]
				}, {
					"name": "batch_normalization_121/moving_variance",
					"dtype": "float32",
					"shape": [128]
				}
			]
		}, {
			"paths": ["group27-shard1of1"],
			"weights": [{
					"name": "batch_normalization_122/gamma",
					"dtype": "float32",
					"shape": [16]
				}, {
					"name": "batch_normalization_122/beta",
					"dtype": "float32",
					"shape": [16]
				}, {
					"name": "batch_normalization_122/moving_mean",
					"dtype": "float32",
					"shape": [16]
				}, {
					"name": "batch_normalization_122/moving_variance",
					"dtype": "float32",
					"shape": [16]
				}
			]
		}, {
			"paths": ["group28-shard1of1"],
			"weights": [{
					"name": "batch_normalization_123/gamma",
					"dtype": "float32",
					"shape": [16]
				}, {
					"name": "batch_normalization_123/beta",
					"dtype": "float32",
					"shape": [16]
				}, {
					"name": "batch_normalization_123/moving_mean",
					"dtype": "float32",
					"shape": [16]
				}, {
					"name": "batch_normalization_123/moving_variance",
					"dtype": "float32",
					"shape": [16]
				}
			]
		}, {
			"paths": ["group29-shard1of1"],
			"weights": [{
					"name": "batch_normalization_124/gamma",
					"dtype": "float32",
					"shape": [64]
				}, {
					"name": "batch_normalization_124/beta",
					"dtype": "float32",
					"shape": [64]
				}, {
					"name": "batch_normalization_124/moving_mean",
					"dtype": "float32",
					"shape": [64]
				}, {
					"name": "batch_normalization_124/moving_variance",
					"dtype": "float32",
					"shape": [64]
				}
			]
		}, {
			"paths": ["group30-shard1of1"],
			"weights": [{
					"name": "batch_normalization_125/gamma",
					"dtype": "float32",
					"shape": [16]
				}, {
					"name": "batch_normalization_125/beta",
					"dtype": "float32",
					"shape": [16]
				}, {
					"name": "batch_normalization_125/moving_mean",
					"dtype": "float32",
					"shape": [16]
				}, {
					"name": "batch_normalization_125/moving_variance",
					"dtype": "float32",
					"shape": [16]
				}
			]
		}, {
			"paths": ["group31-shard1of1"],
			"weights": [{
					"name": "batch_normalization_126/gamma",
					"dtype": "float32",
					"shape": [16]
				}, {
					"name": "batch_normalization_126/beta",
					"dtype": "float32",
					"shape": [16]
				}, {
					"name": "batch_normalization_126/moving_mean",
					"dtype": "float32",
					"shape": [16]
				}, {
					"name": "batch_normalization_126/moving_variance",
					"dtype": "float32",
					"shape": [16]
				}
			]
		}, {
			"paths": ["group32-shard1of1"],
			"weights": [{
					"name": "batch_normalization_127/gamma",
					"dtype": "float32",
					"shape": [64]
				}, {
					"name": "batch_normalization_127/beta",
					"dtype": "float32",
					"shape": [64]
				}, {
					"name": "batch_normalization_127/moving_mean",
					"dtype": "float32",
					"shape": [64]
				}, {
					"name": "batch_normalization_127/moving_variance",
					"dtype": "float32",
					"shape": [64]
				}
			]
		}, {
			"paths": ["group33-shard1of1"],
			"weights": [{
					"name": "batch_normalization_128/gamma",
					"dtype": "float32",
					"shape": [16]
				}, {
					"name": "batch_normalization_128/beta",
					"dtype": "float32",
					"shape": [16]
				}, {
					"name": "batch_normalization_128/moving_mean",
					"dtype": "float32",
					"shape": [16]
				}, {
					"name": "batch_normalization_128/moving_variance",
					"dtype": "float32",
					"shape": [16]
				}
			]
		}, {
			"paths": ["group34-shard1of1"],
			"weights": [{
					"name": "batch_normalization_129/gamma",
					"dtype": "float32",
					"shape": [16]
				}, {
					"name": "batch_normalization_129/beta",
					"dtype": "float32",
					"shape": [16]
				}, {
					"name": "batch_normalization_129/moving_mean",
					"dtype": "float32",
					"shape": [16]
				}, {
					"name": "batch_normalization_129/moving_variance",
					"dtype": "float32",
					"shape": [16]
				}
			]
		}, {
			"paths": ["group35-shard1of1"],
			"weights": [{
					"name": "batch_normalization_13/gamma",
					"dtype": "float32",
					"shape": [32]
				}, {
					"name": "batch_normalization_13/beta",
					"dtype": "float32",
					"shape": [32]
				}, {
					"name": "batch_normalization_13/moving_mean",
					"dtype": "float32",
					"shape": [32]
				}, {
					"name": "batch_normalization_13/moving_variance",
					"dtype": "float32",
					"shape": [32]
				}
			]
		}, {
			"paths": ["group36-shard1of1"],
			"weights": [{
					"name": "batch_normalization_130/gamma",
					"dtype": "float32",
					"shape": [64]
				}, {
					"name": "batch_normalization_130/beta",
					"dtype": "float32",
					"shape": [64]
				}, {
					"name": "batch_normalization_130/moving_mean",
					"dtype": "float32",
					"shape": [64]
				}, {
					"name": "batch_normalization_130/moving_variance",
					"dtype": "float32",
					"shape": [64]
				}
			]
		}, {
			"paths": ["group37-shard1of1"],
			"weights": [{
					"name": "batch_normalization_131/gamma",
					"dtype": "float32",
					"shape": [16]
				}, {
					"name": "batch_normalization_131/beta",
					"dtype": "float32",
					"shape": [16]
				}, {
					"name": "batch_normalization_131/moving_mean",
					"dtype": "float32",
					"shape": [16]
				}, {
					"name": "batch_normalization_131/moving_variance",
					"dtype": "float32",
					"shape": [16]
				}
			]
		}, {
			"paths": ["group38-shard1of1"],
			"weights": [{
					"name": "batch_normalization_132/gamma",
					"dtype": "float32",
					"shape": [16]
				}, {
					"name": "batch_normalization_132/beta",
					"dtype": "float32",
					"shape": [16]
				}, {
					"name": "batch_normalization_132/moving_mean",
					"dtype": "float32",
					"shape": [16]
				}, {
					"name": "batch_normalization_132/moving_variance",
					"dtype": "float32",
					"shape": [16]
				}
			]
		}, {
			"paths": ["group39-shard1of1"],
			"weights": [{
					"name": "batch_normalization_133/gamma",
					"dtype": "float32",
					"shape": [64]
				}, {
					"name": "batch_normalization_133/beta",
					"dtype": "float32",
					"shape": [64]
				}, {
					"name": "batch_normalization_133/moving_mean",
					"dtype": "float32",
					"shape": [64]
				}, {
					"name": "batch_normalization_133/moving_variance",
					"dtype": "float32",
					"shape": [64]
				}
			]
		}, {
			"paths": ["group40-shard1of1"],
			"weights": [{
					"name": "batch_normalization_134/gamma",
					"dtype": "float32",
					"shape": [16]
				}, {
					"name": "batch_normalization_134/beta",
					"dtype": "float32",
					"shape": [16]
				}, {
					"name": "batch_normalization_134/moving_mean",
					"dtype": "float32",
					"shape": [16]
				}, {
					"name": "batch_normalization_134/moving_variance",
					"dtype": "float32",
					"shape": [16]
				}
			]
		}, {
			"paths": ["group41-shard1of1"],
			"weights": [{
					"name": "batch_normalization_135/gamma",
					"dtype": "float32",
					"shape": [16]
				}, {
					"name": "batch_normalization_135/beta",
					"dtype": "float32",
					"shape": [16]
				}, {
					"name": "batch_normalization_135/moving_mean",
					"dtype": "float32",
					"shape": [16]
				}, {
					"name": "batch_normalization_135/moving_variance",
					"dtype": "float32",
					"shape": [16]
				}
			]
		}, {
			"paths": ["group42-shard1of1"],
			"weights": [{
					"name": "batch_normalization_136/gamma",
					"dtype": "float32",
					"shape": [64]
				}, {
					"name": "batch_normalization_136/beta",
					"dtype": "float32",
					"shape": [64]
				}, {
					"name": "batch_normalization_136/moving_mean",
					"dtype": "float32",
					"shape": [64]
				}, {
					"name": "batch_normalization_136/moving_variance",
					"dtype": "float32",
					"shape": [64]
				}
			]
		}, {
			"paths": ["group43-shard1of1"],
			"weights": [{
					"name": "batch_normalization_137/gamma",
					"dtype": "float32",
					"shape": [16]
				}, {
					"name": "batch_normalization_137/beta",
					"dtype": "float32",
					"shape": [16]
				}, {
					"name": "batch_normalization_137/moving_mean",
					"dtype": "float32",
					"shape": [16]
				}, {
					"name": "batch_normalization_137/moving_variance",
					"dtype": "float32",
					"shape": [16]
				}
			]
		}, {
			"paths": ["group44-shard1of1"],
			"weights": [{
					"name": "batch_normalization_138/gamma",
					"dtype": "float32",
					"shape": [16]
				}, {
					"name": "batch_normalization_138/beta",
					"dtype": "float32",
					"shape": [16]
				}, {
					"name": "batch_normalization_138/moving_mean",
					"dtype": "float32",
					"shape": [16]
				}, {
					"name": "batch_normalization_138/moving_variance",
					"dtype": "float32",
					"shape": [16]
				}
			]
		}, {
			"paths": ["group45-shard1of1"],
			"weights": [{
					"name": "batch_normalization_139/gamma",
					"dtype": "float32",
					"shape": [64]
				}, {
					"name": "batch_normalization_139/beta",
					"dtype": "float32",
					"shape": [64]
				}, {
					"name": "batch_normalization_139/moving_mean",
					"dtype": "float32",
					"shape": [64]
				}, {
					"name": "batch_normalization_139/moving_variance",
					"dtype": "float32",
					"shape": [64]
				}
			]
		}, {
			"paths": ["group46-shard1of1"],
			"weights": [{
					"name": "batch_normalization_14/gamma",
					"dtype": "float32",
					"shape": [16]
				}, {
					"name": "batch_normalization_14/beta",
					"dtype": "float32",
					"shape": [16]
				}, {
					"name": "batch_normalization_14/moving_mean",
					"dtype": "float32",
					"shape": [16]
				}, {
					"name": "batch_normalization_14/moving_variance",
					"dtype": "float32",
					"shape": [16]
				}
			]
		}, {
			"paths": ["group47-shard1of1"],
			"weights": [{
					"name": "batch_normalization_140/gamma",
					"dtype": "float32",
					"shape": [8]
				}, {
					"name": "batch_normalization_140/beta",
					"dtype": "float32",
					"shape": [8]
				}, {
					"name": "batch_normalization_140/moving_mean",
					"dtype": "float32",
					"shape": [8]
				}, {
					"name": "batch_normalization_140/moving_variance",
					"dtype": "float32",
					"shape": [8]
				}
			]
		}, {
			"paths": ["group48-shard1of1"],
			"weights": [{
					"name": "batch_normalization_141/gamma",
					"dtype": "float32",
					"shape": [8]
				}, {
					"name": "batch_normalization_141/beta",
					"dtype": "float32",
					"shape": [8]
				}, {
					"name": "batch_normalization_141/moving_mean",
					"dtype": "float32",
					"shape": [8]
				}, {
					"name": "batch_normalization_141/moving_variance",
					"dtype": "float32",
					"shape": [8]
				}
			]
		}, {
			"paths": ["group49-shard1of1"],
			"weights": [{
					"name": "batch_normalization_142/gamma",
					"dtype": "float32",
					"shape": [32]
				}, {
					"name": "batch_normalization_142/beta",
					"dtype": "float32",
					"shape": [32]
				}, {
					"name": "batch_normalization_142/moving_mean",
					"dtype": "float32",
					"shape": [32]
				}, {
					"name": "batch_normalization_142/moving_variance",
					"dtype": "float32",
					"shape": [32]
				}
			]
		}, {
			"paths": ["group50-shard1of1"],
			"weights": [{
					"name": "batch_normalization_143/gamma",
					"dtype": "float32",
					"shape": [8]
				}, {
					"name": "batch_normalization_143/beta",
					"dtype": "float32",
					"shape": [8]
				}, {
					"name": "batch_normalization_143/moving_mean",
					"dtype": "float32",
					"shape": [8]
				}, {
					"name": "batch_normalization_143/moving_variance",
					"dtype": "float32",
					"shape": [8]
				}
			]
		}, {
			"paths": ["group51-shard1of1"],
			"weights": [{
					"name": "batch_normalization_144/gamma",
					"dtype": "float32",
					"shape": [8]
				}, {
					"name": "batch_normalization_144/beta",
					"dtype": "float32",
					"shape": [8]
				}, {
					"name": "batch_normalization_144/moving_mean",
					"dtype": "float32",
					"shape": [8]
				}, {
					"name": "batch_normalization_144/moving_variance",
					"dtype": "float32",
					"shape": [8]
				}
			]
		}, {
			"paths": ["group52-shard1of1"],
			"weights": [{
					"name": "batch_normalization_145/gamma",
					"dtype": "float32",
					"shape": [32]
				}, {
					"name": "batch_normalization_145/beta",
					"dtype": "float32",
					"shape": [32]
				}, {
					"name": "batch_normalization_145/moving_mean",
					"dtype": "float32",
					"shape": [32]
				}, {
					"name": "batch_normalization_145/moving_variance",
					"dtype": "float32",
					"shape": [32]
				}
			]
		}, {
			"paths": ["group53-shard1of1"],
			"weights": [{
					"name": "batch_normalization_146/gamma",
					"dtype": "float32",
					"shape": [8]
				}, {
					"name": "batch_normalization_146/beta",
					"dtype": "float32",
					"shape": [8]
				}, {
					"name": "batch_normalization_146/moving_mean",
					"dtype": "float32",
					"shape": [8]
				}, {
					"name": "batch_normalization_146/moving_variance",
					"dtype": "float32",
					"shape": [8]
				}
			]
		}, {
			"paths": ["group54-shard1of1"],
			"weights": [{
					"name": "batch_normalization_147/gamma",
					"dtype": "float32",
					"shape": [8]
				}, {
					"name": "batch_normalization_147/beta",
					"dtype": "float32",
					"shape": [8]
				}, {
					"name": "batch_normalization_147/moving_mean",
					"dtype": "float32",
					"shape": [8]
				}, {
					"name": "batch_normalization_147/moving_variance",
					"dtype": "float32",
					"shape": [8]
				}
			]
		}, {
			"paths": ["group55-shard1of1"],
			"weights": [{
					"name": "batch_normalization_148/gamma",
					"dtype": "float32",
					"shape": [32]
				}, {
					"name": "batch_normalization_148/beta",
					"dtype": "float32",
					"shape": [32]
				}, {
					"name": "batch_normalization_148/moving_mean",
					"dtype": "float32",
					"shape": [32]
				}, {
					"name": "batch_normalization_148/moving_variance",
					"dtype": "float32",
					"shape": [32]
				}
			]
		}, {
			"paths": ["group56-shard1of1"],
			"weights": [{
					"name": "batch_normalization_149/gamma",
					"dtype": "float32",
					"shape": [8]
				}, {
					"name": "batch_normalization_149/beta",
					"dtype": "float32",
					"shape": [8]
				}, {
					"name": "batch_normalization_149/moving_mean",
					"dtype": "float32",
					"shape": [8]
				}, {
					"name": "batch_normalization_149/moving_variance",
					"dtype": "float32",
					"shape": [8]
				}
			]
		}, {
			"paths": ["group57-shard1of1"],
			"weights": [{
					"name": "batch_normalization_15/gamma",
					"dtype": "float32",
					"shape": [16]
				}, {
					"name": "batch_normalization_15/beta",
					"dtype": "float32",
					"shape": [16]
				}, {
					"name": "batch_normalization_15/moving_mean",
					"dtype": "float32",
					"shape": [16]
				}, {
					"name": "batch_normalization_15/moving_variance",
					"dtype": "float32",
					"shape": [16]
				}
			]
		}, {
			"paths": ["group58-shard1of1"],
			"weights": [{
					"name": "batch_normalization_150/gamma",
					"dtype": "float32",
					"shape": [8]
				}, {
					"name": "batch_normalization_150/beta",
					"dtype": "float32",
					"shape": [8]
				}, {
					"name": "batch_normalization_150/moving_mean",
					"dtype": "float32",
					"shape": [8]
				}, {
					"name": "batch_normalization_150/moving_variance",
					"dtype": "float32",
					"shape": [8]
				}
			]
		}, {
			"paths": ["group59-shard1of1"],
			"weights": [{
					"name": "batch_normalization_151/gamma",
					"dtype": "float32",
					"shape": [32]
				}, {
					"name": "batch_normalization_151/beta",
					"dtype": "float32",
					"shape": [32]
				}, {
					"name": "batch_normalization_151/moving_mean",
					"dtype": "float32",
					"shape": [32]
				}, {
					"name": "batch_normalization_151/moving_variance",
					"dtype": "float32",
					"shape": [32]
				}
			]
		}, {
			"paths": ["group60-shard1of1"],
			"weights": [{
					"name": "batch_normalization_152/gamma",
					"dtype": "float32",
					"shape": [4]
				}, {
					"name": "batch_normalization_152/beta",
					"dtype": "float32",
					"shape": [4]
				}, {
					"name": "batch_normalization_152/moving_mean",
					"dtype": "float32",
					"shape": [4]
				}, {
					"name": "batch_normalization_152/moving_variance",
					"dtype": "float32",
					"shape": [4]
				}
			]
		}, {
			"paths": ["group61-shard1of1"],
			"weights": [{
					"name": "batch_normalization_153/gamma",
					"dtype": "float32",
					"shape": [4]
				}, {
					"name": "batch_normalization_153/beta",
					"dtype": "float32",
					"shape": [4]
				}, {
					"name": "batch_normalization_153/moving_mean",
					"dtype": "float32",
					"shape": [4]
				}, {
					"name": "batch_normalization_153/moving_variance",
					"dtype": "float32",
					"shape": [4]
				}
			]
		}, {
			"paths": ["group62-shard1of1"],
			"weights": [{
					"name": "batch_normalization_154/gamma",
					"dtype": "float32",
					"shape": [16]
				}, {
					"name": "batch_normalization_154/beta",
					"dtype": "float32",
					"shape": [16]
				}, {
					"name": "batch_normalization_154/moving_mean",
					"dtype": "float32",
					"shape": [16]
				}, {
					"name": "batch_normalization_154/moving_variance",
					"dtype": "float32",
					"shape": [16]
				}
			]
		}, {
			"paths": ["group63-shard1of1"],
			"weights": [{
					"name": "batch_normalization_155/gamma",
					"dtype": "float32",
					"shape": [4]
				}, {
					"name": "batch_normalization_155/beta",
					"dtype": "float32",
					"shape": [4]
				}, {
					"name": "batch_normalization_155/moving_mean",
					"dtype": "float32",
					"shape": [4]
				}, {
					"name": "batch_normalization_155/moving_variance",
					"dtype": "float32",
					"shape": [4]
				}
			]
		}, {
			"paths": ["group64-shard1of1"],
			"weights": [{
					"name": "batch_normalization_156/gamma",
					"dtype": "float32",
					"shape": [4]
				}, {
					"name": "batch_normalization_156/beta",
					"dtype": "float32",
					"shape": [4]
				}, {
					"name": "batch_normalization_156/moving_mean",
					"dtype": "float32",
					"shape": [4]
				}, {
					"name": "batch_normalization_156/moving_variance",
					"dtype": "float32",
					"shape": [4]
				}
			]
		}, {
			"paths": ["group65-shard1of1"],
			"weights": [{
					"name": "batch_normalization_157/gamma",
					"dtype": "float32",
					"shape": [16]
				}, {
					"name": "batch_normalization_157/beta",
					"dtype": "float32",
					"shape": [16]
				}, {
					"name": "batch_normalization_157/moving_mean",
					"dtype": "float32",
					"shape": [16]
				}, {
					"name": "batch_normalization_157/moving_variance",
					"dtype": "float32",
					"shape": [16]
				}
			]
		}, {
			"paths": ["group66-shard1of1"],
			"weights": [{
					"name": "batch_normalization_158/gamma",
					"dtype": "float32",
					"shape": [4]
				}, {
					"name": "batch_normalization_158/beta",
					"dtype": "float32",
					"shape": [4]
				}, {
					"name": "batch_normalization_158/moving_mean",
					"dtype": "float32",
					"shape": [4]
				}, {
					"name": "batch_normalization_158/moving_variance",
					"dtype": "float32",
					"shape": [4]
				}
			]
		}, {
			"paths": ["group67-shard1of1"],
			"weights": [{
					"name": "batch_normalization_159/gamma",
					"dtype": "float32",
					"shape": [4]
				}, {
					"name": "batch_normalization_159/beta",
					"dtype": "float32",
					"shape": [4]
				}, {
					"name": "batch_normalization_159/moving_mean",
					"dtype": "float32",
					"shape": [4]
				}, {
					"name": "batch_normalization_159/moving_variance",
					"dtype": "float32",
					"shape": [4]
				}
			]
		}, {
			"paths": ["group68-shard1of1"],
			"weights": [{
					"name": "batch_normalization_16/gamma",
					"dtype": "float32",
					"shape": [64]
				}, {
					"name": "batch_normalization_16/beta",
					"dtype": "float32",
					"shape": [64]
				}, {
					"name": "batch_normalization_16/moving_mean",
					"dtype": "float32",
					"shape": [64]
				}, {
					"name": "batch_normalization_16/moving_variance",
					"dtype": "float32",
					"shape": [64]
				}
			]
		}, {
			"paths": ["group69-shard1of1"],
			"weights": [{
					"name": "batch_normalization_17/gamma",
					"dtype": "float32",
					"shape": [16]
				}, {
					"name": "batch_normalization_17/beta",
					"dtype": "float32",
					"shape": [16]
				}, {
					"name": "batch_normalization_17/moving_mean",
					"dtype": "float32",
					"shape": [16]
				}, {
					"name": "batch_normalization_17/moving_variance",
					"dtype": "float32",
					"shape": [16]
				}
			]
		}, {
			"paths": ["group70-shard1of1"],
			"weights": [{
					"name": "batch_normalization_18/gamma",
					"dtype": "float32",
					"shape": [16]
				}, {
					"name": "batch_normalization_18/beta",
					"dtype": "float32",
					"shape": [16]
				}, {
					"name": "batch_normalization_18/moving_mean",
					"dtype": "float32",
					"shape": [16]
				}, {
					"name": "batch_normalization_18/moving_variance",
					"dtype": "float32",
					"shape": [16]
				}
			]
		}, {
			"paths": ["group71-shard1of1"],
			"weights": [{
					"name": "batch_normalization_19/gamma",
					"dtype": "float32",
					"shape": [64]
				}, {
					"name": "batch_normalization_19/beta",
					"dtype": "float32",
					"shape": [64]
				}, {
					"name": "batch_normalization_19/moving_mean",
					"dtype": "float32",
					"shape": [64]
				}, {
					"name": "batch_normalization_19/moving_variance",
					"dtype": "float32",
					"shape": [64]
				}
			]
		}, {
			"paths": ["group72-shard1of1"],
			"weights": [{
					"name": "batch_normalization_2/gamma",
					"dtype": "float32",
					"shape": [8]
				}, {
					"name": "batch_normalization_2/beta",
					"dtype": "float32",
					"shape": [8]
				}, {
					"name": "batch_normalization_2/moving_mean",
					"dtype": "float32",
					"shape": [8]
				}, {
					"name": "batch_normalization_2/moving_variance",
					"dtype": "float32",
					"shape": [8]
				}
			]
		}, {
			"paths": ["group73-shard1of1"],
			"weights": [{
					"name": "batch_normalization_20/gamma",
					"dtype": "float32",
					"shape": [16]
				}, {
					"name": "batch_normalization_20/beta",
					"dtype": "float32",
					"shape": [16]
				}, {
					"name": "batch_normalization_20/moving_mean",
					"dtype": "float32",
					"shape": [16]
				}, {
					"name": "batch_normalization_20/moving_variance",
					"dtype": "float32",
					"shape": [16]
				}
			]
		}, {
			"paths": ["group74-shard1of1"],
			"weights": [{
					"name": "batch_normalization_21/gamma",
					"dtype": "float32",
					"shape": [16]
				}, {
					"name": "batch_normalization_21/beta",
					"dtype": "float32",
					"shape": [16]
				}, {
					"name": "batch_normalization_21/moving_mean",
					"dtype": "float32",
					"shape": [16]
				}, {
					"name": "batch_normalization_21/moving_variance",
					"dtype": "float32",
					"shape": [16]
				}
			]
		}, {
			"paths": ["group75-shard1of1"],
			"weights": [{
					"name": "batch_normalization_22/gamma",
					"dtype": "float32",
					"shape": [64]
				}, {
					"name": "batch_normalization_22/beta",
					"dtype": "float32",
					"shape": [64]
				}, {
					"name": "batch_normalization_22/moving_mean",
					"dtype": "float32",
					"shape": [64]
				}, {
					"name": "batch_normalization_22/moving_variance",
					"dtype": "float32",
					"shape": [64]
				}
			]
		}, {
			"paths": ["group76-shard1of1"],
			"weights": [{
					"name": "batch_normalization_23/gamma",
					"dtype": "float32",
					"shape": [16]
				}, {
					"name": "batch_normalization_23/beta",
					"dtype": "float32",
					"shape": [16]
				}, {
					"name": "batch_normalization_23/moving_mean",
					"dtype": "float32",
					"shape": [16]
				}, {
					"name": "batch_normalization_23/moving_variance",
					"dtype": "float32",
					"shape": [16]
				}
			]
		}, {
			"paths": ["group77-shard1of1"],
			"weights": [{
					"name": "batch_normalization_24/gamma",
					"dtype": "float32",
					"shape": [16]
				}, {
					"name": "batch_normalization_24/beta",
					"dtype": "float32",
					"shape": [16]
				}, {
					"name": "batch_normalization_24/moving_mean",
					"dtype": "float32",
					"shape": [16]
				}, {
					"name": "batch_normalization_24/moving_variance",
					"dtype": "float32",
					"shape": [16]
				}
			]
		}, {
			"paths": ["group78-shard1of1"],
			"weights": [{
					"name": "batch_normalization_25/gamma",
					"dtype": "float32",
					"shape": [64]
				}, {
					"name": "batch_normalization_25/beta",
					"dtype": "float32",
					"shape": [64]
				}, {
					"name": "batch_normalization_25/moving_mean",
					"dtype": "float32",
					"shape": [64]
				}, {
					"name": "batch_normalization_25/moving_variance",
					"dtype": "float32",
					"shape": [64]
				}
			]
		}, {
			"paths": ["group79-shard1of1"],
			"weights": [{
					"name": "batch_normalization_26/gamma",
					"dtype": "float32",
					"shape": [16]
				}, {
					"name": "batch_normalization_26/beta",
					"dtype": "float32",
					"shape": [16]
				}, {
					"name": "batch_normalization_26/moving_mean",
					"dtype": "float32",
					"shape": [16]
				}, {
					"name": "batch_normalization_26/moving_variance",
					"dtype": "float32",
					"shape": [16]
				}
			]
		}, {
			"paths": ["group80-shard1of1"],
			"weights": [{
					"name": "batch_normalization_27/gamma",
					"dtype": "float32",
					"shape": [16]
				}, {
					"name": "batch_normalization_27/beta",
					"dtype": "float32",
					"shape": [16]
				}, {
					"name": "batch_normalization_27/moving_mean",
					"dtype": "float32",
					"shape": [16]
				}, {
					"name": "batch_normalization_27/moving_variance",
					"dtype": "float32",
					"shape": [16]
				}
			]
		}, {
			"paths": ["group81-shard1of1"],
			"weights": [{
					"name": "batch_normalization_28/gamma",
					"dtype": "float32",
					"shape": [64]
				}, {
					"name": "batch_normalization_28/beta",
					"dtype": "float32",
					"shape": [64]
				}, {
					"name": "batch_normalization_28/moving_mean",
					"dtype": "float32",
					"shape": [64]
				}, {
					"name": "batch_normalization_28/moving_variance",
					"dtype": "float32",
					"shape": [64]
				}
			]
		}, {
			"paths": ["group82-shard1of1"],
			"weights": [{
					"name": "batch_normalization_29/gamma",
					"dtype": "float32",
					"shape": [16]
				}, {
					"name": "batch_normalization_29/beta",
					"dtype": "float32",
					"shape": [16]
				}, {
					"name": "batch_normalization_29/moving_mean",
					"dtype": "float32",
					"shape": [16]
				}, {
					"name": "batch_normalization_29/moving_variance",
					"dtype": "float32",
					"shape": [16]
				}
			]
		}, {
			"paths": ["group83-shard1of1"],
			"weights": [{
					"name": "batch_normalization_3/gamma",
					"dtype": "float32",
					"shape": [8]
				}, {
					"name": "batch_normalization_3/beta",
					"dtype": "float32",
					"shape": [8]
				}, {
					"name": "batch_normalization_3/moving_mean",
					"dtype": "float32",
					"shape": [8]
				}, {
					"name": "batch_normalization_3/moving_variance",
					"dtype": "float32",
					"shape": [8]
				}
			]
		}, {
			"paths": ["group84-shard1of1"],
			"weights": [{
					"name": "batch_normalization_30/gamma",
					"dtype": "float32",
					"shape": [16]
				}, {
					"name": "batch_normalization_30/beta",
					"dtype": "float32",
					"shape": [16]
				}, {
					"name": "batch_normalization_30/moving_mean",
					"dtype": "float32",
					"shape": [16]
				}, {
					"name": "batch_normalization_30/moving_variance",
					"dtype": "float32",
					"shape": [16]
				}
			]
		}, {
			"paths": ["group85-shard1of1"],
			"weights": [{
					"name": "batch_normalization_31/gamma",
					"dtype": "float32",
					"shape": [64]
				}, {
					"name": "batch_normalization_31/beta",
					"dtype": "float32",
					"shape": [64]
				}, {
					"name": "batch_normalization_31/moving_mean",
					"dtype": "float32",
					"shape": [64]
				}, {
					"name": "batch_normalization_31/moving_variance",
					"dtype": "float32",
					"shape": [64]
				}
			]
		}, {
			"paths": ["group86-shard1of1"],
			"weights": [{
					"name": "batch_normalization_32/gamma",
					"dtype": "float32",
					"shape": [32]
				}, {
					"name": "batch_normalization_32/beta",
					"dtype": "float32",
					"shape": [32]
				}, {
					"name": "batch_normalization_32/moving_mean",
					"dtype": "float32",
					"shape": [32]
				}, {
					"name": "batch_normalization_32/moving_variance",
					"dtype": "float32",
					"shape": [32]
				}
			]
		}, {
			"paths": ["group87-shard1of1"],
			"weights": [{
					"name": "batch_normalization_33/gamma",
					"dtype": "float32",
					"shape": [32]
				}, {
					"name": "batch_normalization_33/beta",
					"dtype": "float32",
					"shape": [32]
				}, {
					"name": "batch_normalization_33/moving_mean",
					"dtype": "float32",
					"shape": [32]
				}, {
					"name": "batch_normalization_33/moving_variance",
					"dtype": "float32",
					"shape": [32]
				}
			]
		}, {
			"paths": ["group88-shard1of1"],
			"weights": [{
					"name": "batch_normalization_34/gamma",
					"dtype": "float32",
					"shape": [128]
				}, {
					"name": "batch_normalization_34/beta",
					"dtype": "float32",
					"shape": [128]
				}, {
					"name": "batch_normalization_34/moving_mean",
					"dtype": "float32",
					"shape": [128]
				}, {
					"name": "batch_normalization_34/moving_variance",
					"dtype": "float32",
					"shape": [128]
				}
			]
		}, {
			"paths": ["group89-shard1of1"],
			"weights": [{
					"name": "batch_normalization_35/gamma",
					"dtype": "float32",
					"shape": [32]
				}, {
					"name": "batch_normalization_35/beta",
					"dtype": "float32",
					"shape": [32]
				}, {
					"name": "batch_normalization_35/moving_mean",
					"dtype": "float32",
					"shape": [32]
				}, {
					"name": "batch_normalization_35/moving_variance",
					"dtype": "float32",
					"shape": [32]
				}
			]
		}, {
			"paths": ["group90-shard1of1"],
			"weights": [{
					"name": "batch_normalization_36/gamma",
					"dtype": "float32",
					"shape": [32]
				}, {
					"name": "batch_normalization_36/beta",
					"dtype": "float32",
					"shape": [32]
				}, {
					"name": "batch_normalization_36/moving_mean",
					"dtype": "float32",
					"shape": [32]
				}, {
					"name": "batch_normalization_36/moving_variance",
					"dtype": "float32",
					"shape": [32]
				}
			]
		}, {
			"paths": ["group91-shard1of1"],
			"weights": [{
					"name": "batch_normalization_37/gamma",
					"dtype": "float32",
					"shape": [128]
				}, {
					"name": "batch_normalization_37/beta",
					"dtype": "float32",
					"shape": [128]
				}, {
					"name": "batch_normalization_37/moving_mean",
					"dtype": "float32",
					"shape": [128]
				}, {
					"name": "batch_normalization_37/moving_variance",
					"dtype": "float32",
					"shape": [128]
				}
			]
		}, {
			"paths": ["group92-shard1of1"],
			"weights": [{
					"name": "batch_normalization_38/gamma",
					"dtype": "float32",
					"shape": [32]
				}, {
					"name": "batch_normalization_38/beta",
					"dtype": "float32",
					"shape": [32]
				}, {
					"name": "batch_normalization_38/moving_mean",
					"dtype": "float32",
					"shape": [32]
				}, {
					"name": "batch_normalization_38/moving_variance",
					"dtype": "float32",
					"shape": [32]
				}
			]
		}, {
			"paths": ["group93-shard1of1"],
			"weights": [{
					"name": "batch_normalization_39/gamma",
					"dtype": "float32",
					"shape": [32]
				}, {
					"name": "batch_normalization_39/beta",
					"dtype": "float32",
					"shape": [32]
				}, {
					"name": "batch_normalization_39/moving_mean",
					"dtype": "float32",
					"shape": [32]
				}, {
					"name": "batch_normalization_39/moving_variance",
					"dtype": "float32",
					"shape": [32]
				}
			]
		}, {
			"paths": ["group94-shard1of1"],
			"weights": [{
					"name": "batch_normalization_4/gamma",
					"dtype": "float32",
					"shape": [32]
				}, {
					"name": "batch_normalization_4/beta",
					"dtype": "float32",
					"shape": [32]
				}, {
					"name": "batch_normalization_4/moving_mean",
					"dtype": "float32",
					"shape": [32]
				}, {
					"name": "batch_normalization_4/moving_variance",
					"dtype": "float32",
					"shape": [32]
				}
			]
		}, {
			"paths": ["group95-shard1of1"],
			"weights": [{
					"name": "batch_normalization_40/gamma",
					"dtype": "float32",
					"shape": [128]
				}, {
					"name": "batch_normalization_40/beta",
					"dtype": "float32",
					"shape": [128]
				}, {
					"name": "batch_normalization_40/moving_mean",
					"dtype": "float32",
					"shape": [128]
				}, {
					"name": "batch_normalization_40/moving_variance",
					"dtype": "float32",
					"shape": [128]
				}
			]
		}, {
			"paths": ["group96-shard1of1"],
			"weights": [{
					"name": "batch_normalization_41/gamma",
					"dtype": "float32",
					"shape": [32]
				}, {
					"name": "batch_normalization_41/beta",
					"dtype": "float32",
					"shape": [32]
				}, {
					"name": "batch_normalization_41/moving_mean",
					"dtype": "float32",
					"shape": [32]
				}, {
					"name": "batch_normalization_41/moving_variance",
					"dtype": "float32",
					"shape": [32]
				}
			]
		}, {
			"paths": ["group97-shard1of1"],
			"weights": [{
					"name": "batch_normalization_42/gamma",
					"dtype": "float32",
					"shape": [32]
				}, {
					"name": "batch_normalization_42/beta",
					"dtype": "float32",
					"shape": [32]
				}, {
					"name": "batch_normalization_42/moving_mean",
					"dtype": "float32",
					"shape": [32]
				}, {
					"name": "batch_normalization_42/moving_variance",
					"dtype": "float32",
					"shape": [32]
				}
			]
		}, {
			"paths": ["group98-shard1of1"],
			"weights": [{
					"name": "batch_normalization_43/gamma",
					"dtype": "float32",
					"shape": [128]
				}, {
					"name": "batch_normalization_43/beta",
					"dtype": "float32",
					"shape": [128]
				}, {
					"name": "batch_normalization_43/moving_mean",
					"dtype": "float32",
					"shape": [128]
				}, {
					"name": "batch_normalization_43/moving_variance",
					"dtype": "float32",
					"shape": [128]
				}
			]
		}, {
			"paths": ["group99-shard1of1"],
			"weights": [{
					"name": "batch_normalization_44/gamma",
					"dtype": "float32",
					"shape": [32]
				}, {
					"name": "batch_normalization_44/beta",
					"dtype": "float32",
					"shape": [32]
				}, {
					"name": "batch_normalization_44/moving_mean",
					"dtype": "float32",
					"shape": [32]
				}, {
					"name": "batch_normalization_44/moving_variance",
					"dtype": "float32",
					"shape": [32]
				}
			]
		}, {
			"paths": ["group100-shard1of1"],
			"weights": [{
					"name": "batch_normalization_45/gamma",
					"dtype": "float32",
					"shape": [32]
				}, {
					"name": "batch_normalization_45/beta",
					"dtype": "float32",
					"shape": [32]
				}, {
					"name": "batch_normalization_45/moving_mean",
					"dtype": "float32",
					"shape": [32]
				}, {
					"name": "batch_normalization_45/moving_variance",
					"dtype": "float32",
					"shape": [32]
				}
			]
		}, {
			"paths": ["group101-shard1of1"],
			"weights": [{
					"name": "batch_normalization_46/gamma",
					"dtype": "float32",
					"shape": [128]
				}, {
					"name": "batch_normalization_46/beta",
					"dtype": "float32",
					"shape": [128]
				}, {
					"name": "batch_normalization_46/moving_mean",
					"dtype": "float32",
					"shape": [128]
				}, {
					"name": "batch_normalization_46/moving_variance",
					"dtype": "float32",
					"shape": [128]
				}
			]
		}, {
			"paths": ["group102-shard1of1"],
			"weights": [{
					"name": "batch_normalization_47/gamma",
					"dtype": "float32",
					"shape": [32]
				}, {
					"name": "batch_normalization_47/beta",
					"dtype": "float32",
					"shape": [32]
				}, {
					"name": "batch_normalization_47/moving_mean",
					"dtype": "float32",
					"shape": [32]
				}, {
					"name": "batch_normalization_47/moving_variance",
					"dtype": "float32",
					"shape": [32]
				}
			]
		}, {
			"paths": ["group103-shard1of1"],
			"weights": [{
					"name": "batch_normalization_48/gamma",
					"dtype": "float32",
					"shape": [32]
				}, {
					"name": "batch_normalization_48/beta",
					"dtype": "float32",
					"shape": [32]
				}, {
					"name": "batch_normalization_48/moving_mean",
					"dtype": "float32",
					"shape": [32]
				}, {
					"name": "batch_normalization_48/moving_variance",
					"dtype": "float32",
					"shape": [32]
				}
			]
		}, {
			"paths": ["group104-shard1of1"],
			"weights": [{
					"name": "batch_normalization_49/gamma",
					"dtype": "float32",
					"shape": [128]
				}, {
					"name": "batch_normalization_49/beta",
					"dtype": "float32",
					"shape": [128]
				}, {
					"name": "batch_normalization_49/moving_mean",
					"dtype": "float32",
					"shape": [128]
				}, {
					"name": "batch_normalization_49/moving_variance",
					"dtype": "float32",
					"shape": [128]
				}
			]
		}, {
			"paths": ["group105-shard1of1"],
			"weights": [{
					"name": "batch_normalization_5/gamma",
					"dtype": "float32",
					"shape": [8]
				}, {
					"name": "batch_normalization_5/beta",
					"dtype": "float32",
					"shape": [8]
				}, {
					"name": "batch_normalization_5/moving_mean",
					"dtype": "float32",
					"shape": [8]
				}, {
					"name": "batch_normalization_5/moving_variance",
					"dtype": "float32",
					"shape": [8]
				}
			]
		}, {
			"paths": ["group106-shard1of1"],
			"weights": [{
					"name": "batch_normalization_50/gamma",
					"dtype": "float32",
					"shape": [32]
				}, {
					"name": "batch_normalization_50/beta",
					"dtype": "float32",
					"shape": [32]
				}, {
					"name": "batch_normalization_50/moving_mean",
					"dtype": "float32",
					"shape": [32]
				}, {
					"name": "batch_normalization_50/moving_variance",
					"dtype": "float32",
					"shape": [32]
				}
			]
		}, {
			"paths": ["group107-shard1of1"],
			"weights": [{
					"name": "batch_normalization_51/gamma",
					"dtype": "float32",
					"shape": [32]
				}, {
					"name": "batch_normalization_51/beta",
					"dtype": "float32",
					"shape": [32]
				}, {
					"name": "batch_normalization_51/moving_mean",
					"dtype": "float32",
					"shape": [32]
				}, {
					"name": "batch_normalization_51/moving_variance",
					"dtype": "float32",
					"shape": [32]
				}
			]
		}, {
			"paths": ["group108-shard1of1"],
			"weights": [{
					"name": "batch_normalization_52/gamma",
					"dtype": "float32",
					"shape": [128]
				}, {
					"name": "batch_normalization_52/beta",
					"dtype": "float32",
					"shape": [128]
				}, {
					"name": "batch_normalization_52/moving_mean",
					"dtype": "float32",
					"shape": [128]
				}, {
					"name": "batch_normalization_52/moving_variance",
					"dtype": "float32",
					"shape": [128]
				}
			]
		}, {
			"paths": ["group109-shard1of1"],
			"weights": [{
					"name": "batch_normalization_53/gamma",
					"dtype": "float32",
					"shape": [32]
				}, {
					"name": "batch_normalization_53/beta",
					"dtype": "float32",
					"shape": [32]
				}, {
					"name": "batch_normalization_53/moving_mean",
					"dtype": "float32",
					"shape": [32]
				}, {
					"name": "batch_normalization_53/moving_variance",
					"dtype": "float32",
					"shape": [32]
				}
			]
		}, {
			"paths": ["group110-shard1of1"],
			"weights": [{
					"name": "batch_normalization_54/gamma",
					"dtype": "float32",
					"shape": [32]
				}, {
					"name": "batch_normalization_54/beta",
					"dtype": "float32",
					"shape": [32]
				}, {
					"name": "batch_normalization_54/moving_mean",
					"dtype": "float32",
					"shape": [32]
				}, {
					"name": "batch_normalization_54/moving_variance",
					"dtype": "float32",
					"shape": [32]
				}
			]
		}, {
			"paths": ["group111-shard1of1"],
			"weights": [{
					"name": "batch_normalization_55/gamma",
					"dtype": "float32",
					"shape": [128]
				}, {
					"name": "batch_normalization_55/beta",
					"dtype": "float32",
					"shape": [128]
				}, {
					"name": "batch_normalization_55/moving_mean",
					"dtype": "float32",
					"shape": [128]
				}, {
					"name": "batch_normalization_55/moving_variance",
					"dtype": "float32",
					"shape": [128]
				}
			]
		}, {
			"paths": ["group112-shard1of1"],
			"weights": [{
					"name": "batch_normalization_56/gamma",
					"dtype": "float32",
					"shape": [32]
				}, {
					"name": "batch_normalization_56/beta",
					"dtype": "float32",
					"shape": [32]
				}, {
					"name": "batch_normalization_56/moving_mean",
					"dtype": "float32",
					"shape": [32]
				}, {
					"name": "batch_normalization_56/moving_variance",
					"dtype": "float32",
					"shape": [32]
				}
			]
		}, {
			"paths": ["group113-shard1of1"],
			"weights": [{
					"name": "batch_normalization_57/gamma",
					"dtype": "float32",
					"shape": [32]
				}, {
					"name": "batch_normalization_57/beta",
					"dtype": "float32",
					"shape": [32]
				}, {
					"name": "batch_normalization_57/moving_mean",
					"dtype": "float32",
					"shape": [32]
				}, {
					"name": "batch_normalization_57/moving_variance",
					"dtype": "float32",
					"shape": [32]
				}
			]
		}, {
			"paths": ["group114-shard1of1"],
			"weights": [{
					"name": "batch_normalization_58/gamma",
					"dtype": "float32",
					"shape": [128]
				}, {
					"name": "batch_normalization_58/beta",
					"dtype": "float32",
					"shape": [128]
				}, {
					"name": "batch_normalization_58/moving_mean",
					"dtype": "float32",
					"shape": [128]
				}, {
					"name": "batch_normalization_58/moving_variance",
					"dtype": "float32",
					"shape": [128]
				}
			]
		}, {
			"paths": ["group115-shard1of1"],
			"weights": [{
					"name": "batch_normalization_59/gamma",
					"dtype": "float32",
					"shape": [64]
				}, {
					"name": "batch_normalization_59/beta",
					"dtype": "float32",
					"shape": [64]
				}, {
					"name": "batch_normalization_59/moving_mean",
					"dtype": "float32",
					"shape": [64]
				}, {
					"name": "batch_normalization_59/moving_variance",
					"dtype": "float32",
					"shape": [64]
				}
			]
		}, {
			"paths": ["group116-shard1of1"],
			"weights": [{
					"name": "batch_normalization_6/gamma",
					"dtype": "float32",
					"shape": [8]
				}, {
					"name": "batch_normalization_6/beta",
					"dtype": "float32",
					"shape": [8]
				}, {
					"name": "batch_normalization_6/moving_mean",
					"dtype": "float32",
					"shape": [8]
				}, {
					"name": "batch_normalization_6/moving_variance",
					"dtype": "float32",
					"shape": [8]
				}
			]
		}, {
			"paths": ["group117-shard1of1"],
			"weights": [{
					"name": "batch_normalization_60/gamma",
					"dtype": "float32",
					"shape": [64]
				}, {
					"name": "batch_normalization_60/beta",
					"dtype": "float32",
					"shape": [64]
				}, {
					"name": "batch_normalization_60/moving_mean",
					"dtype": "float32",
					"shape": [64]
				}, {
					"name": "batch_normalization_60/moving_variance",
					"dtype": "float32",
					"shape": [64]
				}
			]
		}, {
			"paths": ["group118-shard1of1"],
			"weights": [{
					"name": "batch_normalization_61/gamma",
					"dtype": "float32",
					"shape": [256]
				}, {
					"name": "batch_normalization_61/beta",
					"dtype": "float32",
					"shape": [256]
				}, {
					"name": "batch_normalization_61/moving_mean",
					"dtype": "float32",
					"shape": [256]
				}, {
					"name": "batch_normalization_61/moving_variance",
					"dtype": "float32",
					"shape": [256]
				}
			]
		}, {
			"paths": ["group119-shard1of1"],
			"weights": [{
					"name": "batch_normalization_62/gamma",
					"dtype": "float32",
					"shape": [64]
				}, {
					"name": "batch_normalization_62/beta",
					"dtype": "float32",
					"shape": [64]
				}, {
					"name": "batch_normalization_62/moving_mean",
					"dtype": "float32",
					"shape": [64]
				}, {
					"name": "batch_normalization_62/moving_variance",
					"dtype": "float32",
					"shape": [64]
				}
			]
		}, {
			"paths": ["group120-shard1of1"],
			"weights": [{
					"name": "batch_normalization_63/gamma",
					"dtype": "float32",
					"shape": [64]
				}, {
					"name": "batch_normalization_63/beta",
					"dtype": "float32",
					"shape": [64]
				}, {
					"name": "batch_normalization_63/moving_mean",
					"dtype": "float32",
					"shape": [64]
				}, {
					"name": "batch_normalization_63/moving_variance",
					"dtype": "float32",
					"shape": [64]
				}
			]
		}, {
			"paths": ["group121-shard1of1"],
			"weights": [{
					"name": "batch_normalization_64/gamma",
					"dtype": "float32",
					"shape": [256]
				}, {
					"name": "batch_normalization_64/beta",
					"dtype": "float32",
					"shape": [256]
				}, {
					"name": "batch_normalization_64/moving_mean",
					"dtype": "float32",
					"shape": [256]
				}, {
					"name": "batch_normalization_64/moving_variance",
					"dtype": "float32",
					"shape": [256]
				}
			]
		}, {
			"paths": ["group122-shard1of1"],
			"weights": [{
					"name": "batch_normalization_65/gamma",
					"dtype": "float32",
					"shape": [64]
				}, {
					"name": "batch_normalization_65/beta",
					"dtype": "float32",
					"shape": [64]
				}, {
					"name": "batch_normalization_65/moving_mean",
					"dtype": "float32",
					"shape": [64]
				}, {
					"name": "batch_normalization_65/moving_variance",
					"dtype": "float32",
					"shape": [64]
				}
			]
		}, {
			"paths": ["group123-shard1of1"],
			"weights": [{
					"name": "batch_normalization_66/gamma",
					"dtype": "float32",
					"shape": [64]
				}, {
					"name": "batch_normalization_66/beta",
					"dtype": "float32",
					"shape": [64]
				}, {
					"name": "batch_normalization_66/moving_mean",
					"dtype": "float32",
					"shape": [64]
				}, {
					"name": "batch_normalization_66/moving_variance",
					"dtype": "float32",
					"shape": [64]
				}
			]
		}, {
			"paths": ["group124-shard1of1"],
			"weights": [{
					"name": "batch_normalization_67/gamma",
					"dtype": "float32",
					"shape": [256]
				}, {
					"name": "batch_normalization_67/beta",
					"dtype": "float32",
					"shape": [256]
				}, {
					"name": "batch_normalization_67/moving_mean",
					"dtype": "float32",
					"shape": [256]
				}, {
					"name": "batch_normalization_67/moving_variance",
					"dtype": "float32",
					"shape": [256]
				}
			]
		}, {
			"paths": ["group125-shard1of1"],
			"weights": [{
					"name": "batch_normalization_68/gamma",
					"dtype": "float32",
					"shape": [64]
				}, {
					"name": "batch_normalization_68/beta",
					"dtype": "float32",
					"shape": [64]
				}, {
					"name": "batch_normalization_68/moving_mean",
					"dtype": "float32",
					"shape": [64]
				}, {
					"name": "batch_normalization_68/moving_variance",
					"dtype": "float32",
					"shape": [64]
				}
			]
		}, {
			"paths": ["group126-shard1of1"],
			"weights": [{
					"name": "batch_normalization_69/gamma",
					"dtype": "float32",
					"shape": [64]
				}, {
					"name": "batch_normalization_69/beta",
					"dtype": "float32",
					"shape": [64]
				}, {
					"name": "batch_normalization_69/moving_mean",
					"dtype": "float32",
					"shape": [64]
				}, {
					"name": "batch_normalization_69/moving_variance",
					"dtype": "float32",
					"shape": [64]
				}
			]
		}, {
			"paths": ["group127-shard1of1"],
			"weights": [{
					"name": "batch_normalization_7/gamma",
					"dtype": "float32",
					"shape": [32]
				}, {
					"name": "batch_normalization_7/beta",
					"dtype": "float32",
					"shape": [32]
				}, {
					"name": "batch_normalization_7/moving_mean",
					"dtype": "float32",
					"shape": [32]
				}, {
					"name": "batch_normalization_7/moving_variance",
					"dtype": "float32",
					"shape": [32]
				}
			]
		}, {
			"paths": ["group128-shard1of1"],
			"weights": [{
					"name": "batch_normalization_70/gamma",
					"dtype": "float32",
					"shape": [256]
				}, {
					"name": "batch_normalization_70/beta",
					"dtype": "float32",
					"shape": [256]
				}, {
					"name": "batch_normalization_70/moving_mean",
					"dtype": "float32",
					"shape": [256]
				}, {
					"name": "batch_normalization_70/moving_variance",
					"dtype": "float32",
					"shape": [256]
				}
			]
		}, {
			"paths": ["group129-shard1of1"],
			"weights": [{
					"name": "batch_normalization_71/gamma",
					"dtype": "float32",
					"shape": [64]
				}, {
					"name": "batch_normalization_71/beta",
					"dtype": "float32",
					"shape": [64]
				}, {
					"name": "batch_normalization_71/moving_mean",
					"dtype": "float32",
					"shape": [64]
				}, {
					"name": "batch_normalization_71/moving_variance",
					"dtype": "float32",
					"shape": [64]
				}
			]
		}, {
			"paths": ["group130-shard1of1"],
			"weights": [{
					"name": "batch_normalization_72/gamma",
					"dtype": "float32",
					"shape": [64]
				}, {
					"name": "batch_normalization_72/beta",
					"dtype": "float32",
					"shape": [64]
				}, {
					"name": "batch_normalization_72/moving_mean",
					"dtype": "float32",
					"shape": [64]
				}, {
					"name": "batch_normalization_72/moving_variance",
					"dtype": "float32",
					"shape": [64]
				}
			]
		}, {
			"paths": ["group131-shard1of1"],
			"weights": [{
					"name": "batch_normalization_73/gamma",
					"dtype": "float32",
					"shape": [256]
				}, {
					"name": "batch_normalization_73/beta",
					"dtype": "float32",
					"shape": [256]
				}, {
					"name": "batch_normalization_73/moving_mean",
					"dtype": "float32",
					"shape": [256]
				}, {
					"name": "batch_normalization_73/moving_variance",
					"dtype": "float32",
					"shape": [256]
				}
			]
		}, {
			"paths": ["group132-shard1of1"],
			"weights": [{
					"name": "batch_normalization_74/gamma",
					"dtype": "float32",
					"shape": [64]
				}, {
					"name": "batch_normalization_74/beta",
					"dtype": "float32",
					"shape": [64]
				}, {
					"name": "batch_normalization_74/moving_mean",
					"dtype": "float32",
					"shape": [64]
				}, {
					"name": "batch_normalization_74/moving_variance",
					"dtype": "float32",
					"shape": [64]
				}
			]
		}, {
			"paths": ["group133-shard1of1"],
			"weights": [{
					"name": "batch_normalization_75/gamma",
					"dtype": "float32",
					"shape": [64]
				}, {
					"name": "batch_normalization_75/beta",
					"dtype": "float32",
					"shape": [64]
				}, {
					"name": "batch_normalization_75/moving_mean",
					"dtype": "float32",
					"shape": [64]
				}, {
					"name": "batch_normalization_75/moving_variance",
					"dtype": "float32",
					"shape": [64]
				}
			]
		}, {
			"paths": ["group134-shard1of1"],
			"weights": [{
					"name": "batch_normalization_76/gamma",
					"dtype": "float32",
					"shape": [256]
				}, {
					"name": "batch_normalization_76/beta",
					"dtype": "float32",
					"shape": [256]
				}, {
					"name": "batch_normalization_76/moving_mean",
					"dtype": "float32",
					"shape": [256]
				}, {
					"name": "batch_normalization_76/moving_variance",
					"dtype": "float32",
					"shape": [256]
				}
			]
		}, {
			"paths": ["group135-shard1of1"],
			"weights": [{
					"name": "batch_normalization_77/gamma",
					"dtype": "float32",
					"shape": [64]
				}, {
					"name": "batch_normalization_77/beta",
					"dtype": "float32",
					"shape": [64]
				}, {
					"name": "batch_normalization_77/moving_mean",
					"dtype": "float32",
					"shape": [64]
				}, {
					"name": "batch_normalization_77/moving_variance",
					"dtype": "float32",
					"shape": [64]
				}
			]
		}, {
			"paths": ["group136-shard1of1"],
			"weights": [{
					"name": "batch_normalization_78/gamma",
					"dtype": "float32",
					"shape": [64]
				}, {
					"name": "batch_normalization_78/beta",
					"dtype": "float32",
					"shape": [64]
				}, {
					"name": "batch_normalization_78/moving_mean",
					"dtype": "float32",
					"shape": [64]
				}, {
					"name": "batch_normalization_78/moving_variance",
					"dtype": "float32",
					"shape": [64]
				}
			]
		}, {
			"paths": ["group137-shard1of1"],
			"weights": [{
					"name": "batch_normalization_79/gamma",
					"dtype": "float32",
					"shape": [256]
				}, {
					"name": "batch_normalization_79/beta",
					"dtype": "float32",
					"shape": [256]
				}, {
					"name": "batch_normalization_79/moving_mean",
					"dtype": "float32",
					"shape": [256]
				}, {
					"name": "batch_normalization_79/moving_variance",
					"dtype": "float32",
					"shape": [256]
				}
			]
		}, {
			"paths": ["group138-shard1of1"],
			"weights": [{
					"name": "batch_normalization_8/gamma",
					"dtype": "float32",
					"shape": [8]
				}, {
					"name": "batch_normalization_8/beta",
					"dtype": "float32",
					"shape": [8]
				}, {
					"name": "batch_normalization_8/moving_mean",
					"dtype": "float32",
					"shape": [8]
				}, {
					"name": "batch_normalization_8/moving_variance",
					"dtype": "float32",
					"shape": [8]
				}
			]
		}, {
			"paths": ["group139-shard1of1"],
			"weights": [{
					"name": "batch_normalization_80/gamma",
					"dtype": "float32",
					"shape": [64]
				}, {
					"name": "batch_normalization_80/beta",
					"dtype": "float32",
					"shape": [64]
				}, {
					"name": "batch_normalization_80/moving_mean",
					"dtype": "float32",
					"shape": [64]
				}, {
					"name": "batch_normalization_80/moving_variance",
					"dtype": "float32",
					"shape": [64]
				}
			]
		}, {
			"paths": ["group140-shard1of1"],
			"weights": [{
					"name": "batch_normalization_81/gamma",
					"dtype": "float32",
					"shape": [64]
				}, {
					"name": "batch_normalization_81/beta",
					"dtype": "float32",
					"shape": [64]
				}, {
					"name": "batch_normalization_81/moving_mean",
					"dtype": "float32",
					"shape": [64]
				}, {
					"name": "batch_normalization_81/moving_variance",
					"dtype": "float32",
					"shape": [64]
				}
			]
		}, {
			"paths": ["group141-shard1of1"],
			"weights": [{
					"name": "batch_normalization_82/gamma",
					"dtype": "float32",
					"shape": [256]
				}, {
					"name": "batch_normalization_82/beta",
					"dtype": "float32",
					"shape": [256]
				}, {
					"name": "batch_normalization_82/moving_mean",
					"dtype": "float32",
					"shape": [256]
				}, {
					"name": "batch_normalization_82/moving_variance",
					"dtype": "float32",
					"shape": [256]
				}
			]
		}, {
			"paths": ["group142-shard1of1"],
			"weights": [{
					"name": "batch_normalization_83/gamma",
					"dtype": "float32",
					"shape": [64]
				}, {
					"name": "batch_normalization_83/beta",
					"dtype": "float32",
					"shape": [64]
				}, {
					"name": "batch_normalization_83/moving_mean",
					"dtype": "float32",
					"shape": [64]
				}, {
					"name": "batch_normalization_83/moving_variance",
					"dtype": "float32",
					"shape": [64]
				}
			]
		}, {
			"paths": ["group143-shard1of1"],
			"weights": [{
					"name": "batch_normalization_84/gamma",
					"dtype": "float32",
					"shape": [64]
				}, {
					"name": "batch_normalization_84/beta",
					"dtype": "float32",
					"shape": [64]
				}, {
					"name": "batch_normalization_84/moving_mean",
					"dtype": "float32",
					"shape": [64]
				}, {
					"name": "batch_normalization_84/moving_variance",
					"dtype": "float32",
					"shape": [64]
				}
			]
		}, {
			"paths": ["group144-shard1of1"],
			"weights": [{
					"name": "batch_normalization_85/gamma",
					"dtype": "float32",
					"shape": [256]
				}, {
					"name": "batch_normalization_85/beta",
					"dtype": "float32",
					"shape": [256]
				}, {
					"name": "batch_normalization_85/moving_mean",
					"dtype": "float32",
					"shape": [256]
				}, {
					"name": "batch_normalization_85/moving_variance",
					"dtype": "float32",
					"shape": [256]
				}
			]
		}, {
			"paths": ["group145-shard1of1"],
			"weights": [{
					"name": "batch_normalization_86/gamma",
					"dtype": "float32",
					"shape": [64]
				}, {
					"name": "batch_normalization_86/beta",
					"dtype": "float32",
					"shape": [64]
				}, {
					"name": "batch_normalization_86/moving_mean",
					"dtype": "float32",
					"shape": [64]
				}, {
					"name": "batch_normalization_86/moving_variance",
					"dtype": "float32",
					"shape": [64]
				}
			]
		}, {
			"paths": ["group146-shard1of1"],
			"weights": [{
					"name": "batch_normalization_87/gamma",
					"dtype": "float32",
					"shape": [64]
				}, {
					"name": "batch_normalization_87/beta",
					"dtype": "float32",
					"shape": [64]
				}, {
					"name": "batch_normalization_87/moving_mean",
					"dtype": "float32",
					"shape": [64]
				}, {
					"name": "batch_normalization_87/moving_variance",
					"dtype": "float32",
					"shape": [64]
				}
			]
		}, {
			"paths": ["group147-shard1of1"],
			"weights": [{
					"name": "batch_normalization_88/gamma",
					"dtype": "float32",
					"shape": [256]
				}, {
					"name": "batch_normalization_88/beta",
					"dtype": "float32",
					"shape": [256]
				}, {
					"name": "batch_normalization_88/moving_mean",
					"dtype": "float32",
					"shape": [256]
				}, {
					"name": "batch_normalization_88/moving_variance",
					"dtype": "float32",
					"shape": [256]
				}
			]
		}, {
			"paths": ["group148-shard1of1"],
			"weights": [{
					"name": "batch_normalization_89/gamma",
					"dtype": "float32",
					"shape": [64]
				}, {
					"name": "batch_normalization_89/beta",
					"dtype": "float32",
					"shape": [64]
				}, {
					"name": "batch_normalization_89/moving_mean",
					"dtype": "float32",
					"shape": [64]
				}, {
					"name": "batch_normalization_89/moving_variance",
					"dtype": "float32",
					"shape": [64]
				}
			]
		}, {
			"paths": ["group149-shard1of1"],
			"weights": [{
					"name": "batch_normalization_9/gamma",
					"dtype": "float32",
					"shape": [8]
				}, {
					"name": "batch_normalization_9/beta",
					"dtype": "float32",
					"shape": [8]
				}, {
					"name": "batch_normalization_9/moving_mean",
					"dtype": "float32",
					"shape": [8]
				}, {
					"name": "batch_normalization_9/moving_variance",
					"dtype": "float32",
					"shape": [8]
				}
			]
		}, {
			"paths": ["group150-shard1of1"],
			"weights": [{
					"name": "batch_normalization_90/gamma",
					"dtype": "float32",
					"shape": [64]
				}, {
					"name": "batch_normalization_90/beta",
					"dtype": "float32",
					"shape": [64]
				}, {
					"name": "batch_normalization_90/moving_mean",
					"dtype": "float32",
					"shape": [64]
				}, {
					"name": "batch_normalization_90/moving_variance",
					"dtype": "float32",
					"shape": [64]
				}
			]
		}, {
			"paths": ["group151-shard1of1"],
			"weights": [{
					"name": "batch_normalization_91/gamma",
					"dtype": "float32",
					"shape": [256]
				}, {
					"name": "batch_normalization_91/beta",
					"dtype": "float32",
					"shape": [256]
				}, {
					"name": "batch_normalization_91/moving_mean",
					"dtype": "float32",
					"shape": [256]
				}, {
					"name": "batch_normalization_91/moving_variance",
					"dtype": "float32",
					"shape": [256]
				}
			]
		}, {
			"paths": ["group152-shard1of1"],
			"weights": [{
					"name": "batch_normalization_92/gamma",
					"dtype": "float32",
					"shape": [64]
				}, {
					"name": "batch_normalization_92/beta",
					"dtype": "float32",
					"shape": [64]
				}, {
					"name": "batch_normalization_92/moving_mean",
					"dtype": "float32",
					"shape": [64]
				}, {
					"name": "batch_normalization_92/moving_variance",
					"dtype": "float32",
					"shape": [64]
				}
			]
		}, {
			"paths": ["group153-shard1of1"],
			"weights": [{
					"name": "batch_normalization_93/gamma",
					"dtype": "float32",
					"shape": [64]
				}, {
					"name": "batch_normalization_93/beta",
					"dtype": "float32",
					"shape": [64]
				}, {
					"name": "batch_normalization_93/moving_mean",
					"dtype": "float32",
					"shape": [64]
				}, {
					"name": "batch_normalization_93/moving_variance",
					"dtype": "float32",
					"shape": [64]
				}
			]
		}, {
			"paths": ["group154-shard1of1"],
			"weights": [{
					"name": "batch_normalization_94/gamma",
					"dtype": "float32",
					"shape": [256]
				}, {
					"name": "batch_normalization_94/beta",
					"dtype": "float32",
					"shape": [256]
				}, {
					"name": "batch_normalization_94/moving_mean",
					"dtype": "float32",
					"shape": [256]
				}, {
					"name": "batch_normalization_94/moving_variance",
					"dtype": "float32",
					"shape": [256]
				}
			]
		}, {
			"paths": ["group155-shard1of1"],
			"weights": [{
					"name": "batch_normalization_95/gamma",
					"dtype": "float32",
					"shape": [32]
				}, {
					"name": "batch_normalization_95/beta",
					"dtype": "float32",
					"shape": [32]
				}, {
					"name": "batch_normalization_95/moving_mean",
					"dtype": "float32",
					"shape": [32]
				}, {
					"name": "batch_normalization_95/moving_variance",
					"dtype": "float32",
					"shape": [32]
				}
			]
		}, {
			"paths": ["group156-shard1of1"],
			"weights": [{
					"name": "batch_normalization_96/gamma",
					"dtype": "float32",
					"shape": [32]
				}, {
					"name": "batch_normalization_96/beta",
					"dtype": "float32",
					"shape": [32]
				}, {
					"name": "batch_normalization_96/moving_mean",
					"dtype": "float32",
					"shape": [32]
				}, {
					"name": "batch_normalization_96/moving_variance",
					"dtype": "float32",
					"shape": [32]
				}
			]
		}, {
			"paths": ["group157-shard1of1"],
			"weights": [{
					"name": "batch_normalization_97/gamma",
					"dtype": "float32",
					"shape": [128]
				}, {
					"name": "batch_normalization_97/beta",
					"dtype": "float32",
					"shape": [128]
				}, {
					"name": "batch_normalization_97/moving_mean",
					"dtype": "float32",
					"shape": [128]
				}, {
					"name": "batch_normalization_97/moving_variance",
					"dtype": "float32",
					"shape": [128]
				}
			]
		}, {
			"paths": ["group158-shard1of1"],
			"weights": [{
					"name": "batch_normalization_98/gamma",
					"dtype": "float32",
					"shape": [32]
				}, {
					"name": "batch_normalization_98/beta",
					"dtype": "float32",
					"shape": [32]
				}, {
					"name": "batch_normalization_98/moving_mean",
					"dtype": "float32",
					"shape": [32]
				}, {
					"name": "batch_normalization_98/moving_variance",
					"dtype": "float32",
					"shape": [32]
				}
			]
		}, {
			"paths": ["group159-shard1of1"],
			"weights": [{
					"name": "batch_normalization_99/gamma",
					"dtype": "float32",
					"shape": [32]
				}, {
					"name": "batch_normalization_99/beta",
					"dtype": "float32",
					"shape": [32]
				}, {
					"name": "batch_normalization_99/moving_mean",
					"dtype": "float32",
					"shape": [32]
				}, {
					"name": "batch_normalization_99/moving_variance",
					"dtype": "float32",
					"shape": [32]
				}
			]
		}, {
			"paths": ["group160-shard1of1"],
			"weights": [{
					"name": "conv2d_1/kernel",
					"dtype": "float32",
					"shape": [1, 1, 1, 8]
				}, {
					"name": "conv2d_1/bias",
					"dtype": "float32",
					"shape": [8]
				}
			]
		}, {
			"paths": ["group161-shard1of1"],
			"weights": [{
					"name": "conv2d_10/kernel",
					"dtype": "float32",
					"shape": [1, 1, 8, 32]
				}, {
					"name": "conv2d_10/bias",
					"dtype": "float32",
					"shape": [32]
				}
			]
		}, {
			"paths": ["group162-shard1of1"],
			"weights": [{
					"name": "conv2d_100/kernel",
					"dtype": "float32",
					"shape": [1, 1, 128, 32]
				}, {
					"name": "conv2d_100/bias",
					"dtype": "float32",
					"shape": [32]
				}
			]
		}, {
			"paths": ["group163-shard1of1"],
			"weights": [{
					"name": "conv2d_101/kernel",
					"dtype": "float32",
					"shape": [3, 3, 32, 32]
				}, {
					"name": "conv2d_101/bias",
					"dtype": "float32",
					"shape": [32]
				}
			]
		}, {
			"paths": ["group164-shard1of1"],
			"weights": [{
					"name": "conv2d_102/kernel",
					"dtype": "float32",
					"shape": [1, 1, 32, 128]
				}, {
					"name": "conv2d_102/bias",
					"dtype": "float32",
					"shape": [128]
				}
			]
		}, {
			"paths": ["group165-shard1of1"],
			"weights": [{
					"name": "conv2d_103/kernel",
					"dtype": "float32",
					"shape": [1, 1, 128, 32]
				}, {
					"name": "conv2d_103/bias",
					"dtype": "float32",
					"shape": [32]
				}
			]
		}, {
			"paths": ["group166-shard1of1"],
			"weights": [{
					"name": "conv2d_104/kernel",
					"dtype": "float32",
					"shape": [3, 3, 32, 32]
				}, {
					"name": "conv2d_104/bias",
					"dtype": "float32",
					"shape": [32]
				}
			]
		}, {
			"paths": ["group167-shard1of1"],
			"weights": [{
					"name": "conv2d_105/kernel",
					"dtype": "float32",
					"shape": [1, 1, 32, 128]
				}, {
					"name": "conv2d_105/bias",
					"dtype": "float32",
					"shape": [128]
				}
			]
		}, {
			"paths": ["group168-shard1of1"],
			"weights": [{
					"name": "conv2d_106/kernel",
					"dtype": "float32",
					"shape": [1, 1, 128, 32]
				}, {
					"name": "conv2d_106/bias",
					"dtype": "float32",
					"shape": [32]
				}
			]
		}, {
			"paths": ["group169-shard1of1"],
			"weights": [{
					"name": "conv2d_107/kernel",
					"dtype": "float32",
					"shape": [3, 3, 32, 32]
				}, {
					"name": "conv2d_107/bias",
					"dtype": "float32",
					"shape": [32]
				}
			]
		}, {
			"paths": ["group170-shard1of1"],
			"weights": [{
					"name": "conv2d_108/kernel",
					"dtype": "float32",
					"shape": [1, 1, 32, 128]
				}, {
					"name": "conv2d_108/bias",
					"dtype": "float32",
					"shape": [128]
				}
			]
		}, {
			"paths": ["group171-shard1of1"],
			"weights": [{
					"name": "conv2d_109/kernel",
					"dtype": "float32",
					"shape": [1, 1, 128, 32]
				}, {
					"name": "conv2d_109/bias",
					"dtype": "float32",
					"shape": [32]
				}
			]
		}, {
			"paths": ["group172-shard1of1"],
			"weights": [{
					"name": "conv2d_11/kernel",
					"dtype": "float32",
					"shape": [1, 1, 32, 8]
				}, {
					"name": "conv2d_11/bias",
					"dtype": "float32",
					"shape": [8]
				}
			]
		}, {
			"paths": ["group173-shard1of1"],
			"weights": [{
					"name": "conv2d_110/kernel",
					"dtype": "float32",
					"shape": [3, 3, 32, 32]
				}, {
					"name": "conv2d_110/bias",
					"dtype": "float32",
					"shape": [32]
				}
			]
		}, {
			"paths": ["group174-shard1of1"],
			"weights": [{
					"name": "conv2d_111/kernel",
					"dtype": "float32",
					"shape": [1, 1, 32, 128]
				}, {
					"name": "conv2d_111/bias",
					"dtype": "float32",
					"shape": [128]
				}
			]
		}, {
			"paths": ["group175-shard1of1"],
			"weights": [{
					"name": "conv2d_112/kernel",
					"dtype": "float32",
					"shape": [1, 1, 128, 32]
				}, {
					"name": "conv2d_112/bias",
					"dtype": "float32",
					"shape": [32]
				}
			]
		}, {
			"paths": ["group176-shard1of1"],
			"weights": [{
					"name": "conv2d_113/kernel",
					"dtype": "float32",
					"shape": [3, 3, 32, 32]
				}, {
					"name": "conv2d_113/bias",
					"dtype": "float32",
					"shape": [32]
				}
			]
		}, {
			"paths": ["group177-shard1of1"],
			"weights": [{
					"name": "conv2d_114/kernel",
					"dtype": "float32",
					"shape": [1, 1, 32, 128]
				}, {
					"name": "conv2d_114/bias",
					"dtype": "float32",
					"shape": [128]
				}
			]
		}, {
			"paths": ["group178-shard1of1"],
			"weights": [{
					"name": "conv2d_115/kernel",
					"dtype": "float32",
					"shape": [1, 1, 128, 32]
				}, {
					"name": "conv2d_115/bias",
					"dtype": "float32",
					"shape": [32]
				}
			]
		}, {
			"paths": ["group179-shard1of1"],
			"weights": [{
					"name": "conv2d_116/kernel",
					"dtype": "float32",
					"shape": [3, 3, 32, 32]
				}, {
					"name": "conv2d_116/bias",
					"dtype": "float32",
					"shape": [32]
				}
			]
		}, {
			"paths": ["group180-shard1of1"],
			"weights": [{
					"name": "conv2d_117/kernel",
					"dtype": "float32",
					"shape": [1, 1, 32, 128]
				}, {
					"name": "conv2d_117/bias",
					"dtype": "float32",
					"shape": [128]
				}
			]
		}, {
			"paths": ["group181-shard1of1"],
			"weights": [{
					"name": "conv2d_118/kernel",
					"dtype": "float32",
					"shape": [1, 1, 128, 32]
				}, {
					"name": "conv2d_118/bias",
					"dtype": "float32",
					"shape": [32]
				}
			]
		}, {
			"paths": ["group182-shard1of1"],
			"weights": [{
					"name": "conv2d_119/kernel",
					"dtype": "float32",
					"shape": [3, 3, 32, 32]
				}, {
					"name": "conv2d_119/bias",
					"dtype": "float32",
					"shape": [32]
				}
			]
		}, {
			"paths": ["group183-shard1of1"],
			"weights": [{
					"name": "conv2d_12/kernel",
					"dtype": "float32",
					"shape": [3, 3, 8, 8]
				}, {
					"name": "conv2d_12/bias",
					"dtype": "float32",
					"shape": [8]
				}
			]
		}, {
			"paths": ["group184-shard1of1"],
			"weights": [{
					"name": "conv2d_120/kernel",
					"dtype": "float32",
					"shape": [1, 1, 32, 128]
				}, {
					"name": "conv2d_120/bias",
					"dtype": "float32",
					"shape": [128]
				}
			]
		}, {
			"paths": ["group185-shard1of1"],
			"weights": [{
					"name": "conv2d_121/kernel",
					"dtype": "float32",
					"shape": [1, 1, 128, 32]
				}, {
					"name": "conv2d_121/bias",
					"dtype": "float32",
					"shape": [32]
				}
			]
		}, {
			"paths": ["group186-shard1of1"],
			"weights": [{
					"name": "conv2d_122/kernel",
					"dtype": "float32",
					"shape": [3, 3, 32, 32]
				}, {
					"name": "conv2d_122/bias",
					"dtype": "float32",
					"shape": [32]
				}
			]
		}, {
			"paths": ["group187-shard1of1"],
			"weights": [{
					"name": "conv2d_123/kernel",
					"dtype": "float32",
					"shape": [1, 1, 32, 128]
				}, {
					"name": "conv2d_123/bias",
					"dtype": "float32",
					"shape": [128]
				}
			]
		}, {
			"paths": ["group188-shard1of1"],
			"weights": [{
					"name": "conv2d_124/kernel",
					"dtype": "float32",
					"shape": [3, 3, 16, 16]
				}, {
					"name": "conv2d_124/bias",
					"dtype": "float32",
					"shape": [16]
				}
			]
		}, {
			"paths": ["group189-shard1of1"],
			"weights": [{
					"name": "conv2d_125/kernel",
					"dtype": "float32",
					"shape": [1, 1, 16, 64]
				}, {
					"name": "conv2d_125/bias",
					"dtype": "float32",
					"shape": [64]
				}
			]
		}, {
			"paths": ["group190-shard1of1"],
			"weights": [{
					"name": "conv2d_126/kernel",
					"dtype": "float32",
					"shape": [1, 1, 64, 16]
				}, {
					"name": "conv2d_126/bias",
					"dtype": "float32",
					"shape": [16]
				}
			]
		}, {
			"paths": ["group191-shard1of1"],
			"weights": [{
					"name": "conv2d_127/kernel",
					"dtype": "float32",
					"shape": [3, 3, 16, 16]
				}, {
					"name": "conv2d_127/bias",
					"dtype": "float32",
					"shape": [16]
				}
			]
		}, {
			"paths": ["group192-shard1of1"],
			"weights": [{
					"name": "conv2d_128/kernel",
					"dtype": "float32",
					"shape": [1, 1, 16, 64]
				}, {
					"name": "conv2d_128/bias",
					"dtype": "float32",
					"shape": [64]
				}
			]
		}, {
			"paths": ["group193-shard1of1"],
			"weights": [{
					"name": "conv2d_129/kernel",
					"dtype": "float32",
					"shape": [1, 1, 64, 16]
				}, {
					"name": "conv2d_129/bias",
					"dtype": "float32",
					"shape": [16]
				}
			]
		}, {
			"paths": ["group194-shard1of1"],
			"weights": [{
					"name": "conv2d_13/kernel",
					"dtype": "float32",
					"shape": [1, 1, 8, 32]
				}, {
					"name": "conv2d_13/bias",
					"dtype": "float32",
					"shape": [32]
				}
			]
		}, {
			"paths": ["group195-shard1of1"],
			"weights": [{
					"name": "conv2d_130/kernel",
					"dtype": "float32",
					"shape": [3, 3, 16, 16]
				}, {
					"name": "conv2d_130/bias",
					"dtype": "float32",
					"shape": [16]
				}
			]
		}, {
			"paths": ["group196-shard1of1"],
			"weights": [{
					"name": "conv2d_131/kernel",
					"dtype": "float32",
					"shape": [1, 1, 16, 64]
				}, {
					"name": "conv2d_131/bias",
					"dtype": "float32",
					"shape": [64]
				}
			]
		}, {
			"paths": ["group197-shard1of1"],
			"weights": [{
					"name": "conv2d_132/kernel",
					"dtype": "float32",
					"shape": [1, 1, 64, 16]
				}, {
					"name": "conv2d_132/bias",
					"dtype": "float32",
					"shape": [16]
				}
			]
		}, {
			"paths": ["group198-shard1of1"],
			"weights": [{
					"name": "conv2d_133/kernel",
					"dtype": "float32",
					"shape": [3, 3, 16, 16]
				}, {
					"name": "conv2d_133/bias",
					"dtype": "float32",
					"shape": [16]
				}
			]
		}, {
			"paths": ["group199-shard1of1"],
			"weights": [{
					"name": "conv2d_134/kernel",
					"dtype": "float32",
					"shape": [1, 1, 16, 64]
				}, {
					"name": "conv2d_134/bias",
					"dtype": "float32",
					"shape": [64]
				}
			]
		}, {
			"paths": ["group200-shard1of1"],
			"weights": [{
					"name": "conv2d_135/kernel",
					"dtype": "float32",
					"shape": [1, 1, 64, 16]
				}, {
					"name": "conv2d_135/bias",
					"dtype": "float32",
					"shape": [16]
				}
			]
		}, {
			"paths": ["group201-shard1of1"],
			"weights": [{
					"name": "conv2d_136/kernel",
					"dtype": "float32",
					"shape": [3, 3, 16, 16]
				}, {
					"name": "conv2d_136/bias",
					"dtype": "float32",
					"shape": [16]
				}
			]
		}, {
			"paths": ["group202-shard1of1"],
			"weights": [{
					"name": "conv2d_137/kernel",
					"dtype": "float32",
					"shape": [1, 1, 16, 64]
				}, {
					"name": "conv2d_137/bias",
					"dtype": "float32",
					"shape": [64]
				}
			]
		}, {
			"paths": ["group203-shard1of1"],
			"weights": [{
					"name": "conv2d_138/kernel",
					"dtype": "float32",
					"shape": [1, 1, 64, 16]
				}, {
					"name": "conv2d_138/bias",
					"dtype": "float32",
					"shape": [16]
				}
			]
		}, {
			"paths": ["group204-shard1of1"],
			"weights": [{
					"name": "conv2d_139/kernel",
					"dtype": "float32",
					"shape": [3, 3, 16, 16]
				}, {
					"name": "conv2d_139/bias",
					"dtype": "float32",
					"shape": [16]
				}
			]
		}, {
			"paths": ["group205-shard1of1"],
			"weights": [{
					"name": "conv2d_14/kernel",
					"dtype": "float32",
					"shape": [1, 1, 32, 16]
				}, {
					"name": "conv2d_14/bias",
					"dtype": "float32",
					"shape": [16]
				}
			]
		}, {
			"paths": ["group206-shard1of1"],
			"weights": [{
					"name": "conv2d_140/kernel",
					"dtype": "float32",
					"shape": [1, 1, 16, 64]
				}, {
					"name": "conv2d_140/bias",
					"dtype": "float32",
					"shape": [64]
				}
			]
		}, {
			"paths": ["group207-shard1of1"],
			"weights": [{
					"name": "conv2d_141/kernel",
					"dtype": "float32",
					"shape": [3, 3, 8, 8]
				}, {
					"name": "conv2d_141/bias",
					"dtype": "float32",
					"shape": [8]
				}
			]
		}, {
			"paths": ["group208-shard1of1"],
			"weights": [{
					"name": "conv2d_142/kernel",
					"dtype": "float32",
					"shape": [1, 1, 8, 32]
				}, {
					"name": "conv2d_142/bias",
					"dtype": "float32",
					"shape": [32]
				}
			]
		}, {
			"paths": ["group209-shard1of1"],
			"weights": [{
					"name": "conv2d_143/kernel",
					"dtype": "float32",
					"shape": [1, 1, 32, 8]
				}, {
					"name": "conv2d_143/bias",
					"dtype": "float32",
					"shape": [8]
				}
			]
		}, {
			"paths": ["group210-shard1of1"],
			"weights": [{
					"name": "conv2d_144/kernel",
					"dtype": "float32",
					"shape": [3, 3, 8, 8]
				}, {
					"name": "conv2d_144/bias",
					"dtype": "float32",
					"shape": [8]
				}
			]
		}, {
			"paths": ["group211-shard1of1"],
			"weights": [{
					"name": "conv2d_145/kernel",
					"dtype": "float32",
					"shape": [1, 1, 8, 32]
				}, {
					"name": "conv2d_145/bias",
					"dtype": "float32",
					"shape": [32]
				}
			]
		}, {
			"paths": ["group212-shard1of1"],
			"weights": [{
					"name": "conv2d_146/kernel",
					"dtype": "float32",
					"shape": [1, 1, 32, 8]
				}, {
					"name": "conv2d_146/bias",
					"dtype": "float32",
					"shape": [8]
				}
			]
		}, {
			"paths": ["group213-shard1of1"],
			"weights": [{
					"name": "conv2d_147/kernel",
					"dtype": "float32",
					"shape": [3, 3, 8, 8]
				}, {
					"name": "conv2d_147/bias",
					"dtype": "float32",
					"shape": [8]
				}
			]
		}, {
			"paths": ["group214-shard1of1"],
			"weights": [{
					"name": "conv2d_148/kernel",
					"dtype": "float32",
					"shape": [1, 1, 8, 32]
				}, {
					"name": "conv2d_148/bias",
					"dtype": "float32",
					"shape": [32]
				}
			]
		}, {
			"paths": ["group215-shard1of1"],
			"weights": [{
					"name": "conv2d_149/kernel",
					"dtype": "float32",
					"shape": [1, 1, 32, 8]
				}, {
					"name": "conv2d_149/bias",
					"dtype": "float32",
					"shape": [8]
				}
			]
		}, {
			"paths": ["group216-shard1of1"],
			"weights": [{
					"name": "conv2d_15/kernel",
					"dtype": "float32",
					"shape": [3, 3, 16, 16]
				}, {
					"name": "conv2d_15/bias",
					"dtype": "float32",
					"shape": [16]
				}
			]
		}, {
			"paths": ["group217-shard1of1"],
			"weights": [{
					"name": "conv2d_150/kernel",
					"dtype": "float32",
					"shape": [3, 3, 8, 8]
				}, {
					"name": "conv2d_150/bias",
					"dtype": "float32",
					"shape": [8]
				}
			]
		}, {
			"paths": ["group218-shard1of1"],
			"weights": [{
					"name": "conv2d_151/kernel",
					"dtype": "float32",
					"shape": [1, 1, 8, 32]
				}, {
					"name": "conv2d_151/bias",
					"dtype": "float32",
					"shape": [32]
				}
			]
		}, {
			"paths": ["group219-shard1of1"],
			"weights": [{
					"name": "conv2d_152/kernel",
					"dtype": "float32",
					"shape": [1, 1, 32, 4]
				}, {
					"name": "conv2d_152/bias",
					"dtype": "float32",
					"shape": [4]
				}
			]
		}, {
			"paths": ["group220-shard1of1"],
			"weights": [{
					"name": "conv2d_153/kernel",
					"dtype": "float32",
					"shape": [3, 3, 4, 4]
				}, {
					"name": "conv2d_153/bias",
					"dtype": "float32",
					"shape": [4]
				}
			]
		}, {
			"paths": ["group221-shard1of1"],
			"weights": [{
					"name": "conv2d_154/kernel",
					"dtype": "float32",
					"shape": [1, 1, 4, 16]
				}, {
					"name": "conv2d_154/bias",
					"dtype": "float32",
					"shape": [16]
				}
			]
		}, {
			"paths": ["group222-shard1of1"],
			"weights": [{
					"name": "conv2d_155/kernel",
					"dtype": "float32",
					"shape": [1, 1, 32, 16]
				}, {
					"name": "conv2d_155/bias",
					"dtype": "float32",
					"shape": [16]
				}
			]
		}, {
			"paths": ["group223-shard1of1"],
			"weights": [{
					"name": "conv2d_156/kernel",
					"dtype": "float32",
					"shape": [1, 1, 16, 4]
				}, {
					"name": "conv2d_156/bias",
					"dtype": "float32",
					"shape": [4]
				}
			]
		}, {
			"paths": ["group224-shard1of1"],
			"weights": [{
					"name": "conv2d_157/kernel",
					"dtype": "float32",
					"shape": [3, 3, 4, 4]
				}, {
					"name": "conv2d_157/bias",
					"dtype": "float32",
					"shape": [4]
				}
			]
		}, {
			"paths": ["group225-shard1of1"],
			"weights": [{
					"name": "conv2d_158/kernel",
					"dtype": "float32",
					"shape": [1, 1, 4, 16]
				}, {
					"name": "conv2d_158/bias",
					"dtype": "float32",
					"shape": [16]
				}
			]
		}, {
			"paths": ["group226-shard1of1"],
			"weights": [{
					"name": "conv2d_159/kernel",
					"dtype": "float32",
					"shape": [1, 1, 16, 4]
				}, {
					"name": "conv2d_159/bias",
					"dtype": "float32",
					"shape": [4]
				}
			]
		}, {
			"paths": ["group227-shard1of1"],
			"weights": [{
					"name": "conv2d_16/kernel",
					"dtype": "float32",
					"shape": [1, 1, 16, 64]
				}, {
					"name": "conv2d_16/bias",
					"dtype": "float32",
					"shape": [64]
				}
			]
		}, {
			"paths": ["group228-shard1of1"],
			"weights": [{
					"name": "conv2d_160/kernel",
					"dtype": "float32",
					"shape": [3, 3, 4, 4]
				}, {
					"name": "conv2d_160/bias",
					"dtype": "float32",
					"shape": [4]
				}
			]
		}, {
			"paths": ["group229-shard1of1"],
			"weights": [{
					"name": "conv2d_161/kernel",
					"dtype": "float32",
					"shape": [1, 1, 4, 16]
				}, {
					"name": "conv2d_161/bias",
					"dtype": "float32",
					"shape": [16]
				}
			]
		}, {
			"paths": ["group230-shard1of1"],
			"weights": [{
					"name": "conv2d_162/kernel",
					"dtype": "float32",
					"shape": [1, 1, 16, 1]
				}, {
					"name": "conv2d_162/bias",
					"dtype": "float32",
					"shape": [1]
				}
			]
		}, {
			"paths": ["group231-shard1of1"],
			"weights": [{
					"name": "conv2d_17/kernel",
					"dtype": "float32",
					"shape": [1, 1, 32, 64]
				}, {
					"name": "conv2d_17/bias",
					"dtype": "float32",
					"shape": [64]
				}
			]
		}, {
			"paths": ["group232-shard1of1"],
			"weights": [{
					"name": "conv2d_18/kernel",
					"dtype": "float32",
					"shape": [1, 1, 64, 16]
				}, {
					"name": "conv2d_18/bias",
					"dtype": "float32",
					"shape": [16]
				}
			]
		}, {
			"paths": ["group233-shard1of1"],
			"weights": [{
					"name": "conv2d_19/kernel",
					"dtype": "float32",
					"shape": [3, 3, 16, 16]
				}, {
					"name": "conv2d_19/bias",
					"dtype": "float32",
					"shape": [16]
				}
			]
		}, {
			"paths": ["group234-shard1of1"],
			"weights": [{
					"name": "conv2d_2/kernel",
					"dtype": "float32",
					"shape": [3, 3, 8, 8]
				}, {
					"name": "conv2d_2/bias",
					"dtype": "float32",
					"shape": [8]
				}
			]
		}, {
			"paths": ["group235-shard1of1"],
			"weights": [{
					"name": "conv2d_20/kernel",
					"dtype": "float32",
					"shape": [1, 1, 16, 64]
				}, {
					"name": "conv2d_20/bias",
					"dtype": "float32",
					"shape": [64]
				}
			]
		}, {
			"paths": ["group236-shard1of1"],
			"weights": [{
					"name": "conv2d_21/kernel",
					"dtype": "float32",
					"shape": [1, 1, 64, 16]
				}, {
					"name": "conv2d_21/bias",
					"dtype": "float32",
					"shape": [16]
				}
			]
		}, {
			"paths": ["group237-shard1of1"],
			"weights": [{
					"name": "conv2d_22/kernel",
					"dtype": "float32",
					"shape": [3, 3, 16, 16]
				}, {
					"name": "conv2d_22/bias",
					"dtype": "float32",
					"shape": [16]
				}
			]
		}, {
			"paths": ["group238-shard1of1"],
			"weights": [{
					"name": "conv2d_23/kernel",
					"dtype": "float32",
					"shape": [1, 1, 16, 64]
				}, {
					"name": "conv2d_23/bias",
					"dtype": "float32",
					"shape": [64]
				}
			]
		}, {
			"paths": ["group239-shard1of1"],
			"weights": [{
					"name": "conv2d_24/kernel",
					"dtype": "float32",
					"shape": [1, 1, 64, 16]
				}, {
					"name": "conv2d_24/bias",
					"dtype": "float32",
					"shape": [16]
				}
			]
		}, {
			"paths": ["group240-shard1of1"],
			"weights": [{
					"name": "conv2d_25/kernel",
					"dtype": "float32",
					"shape": [3, 3, 16, 16]
				}, {
					"name": "conv2d_25/bias",
					"dtype": "float32",
					"shape": [16]
				}
			]
		}, {
			"paths": ["group241-shard1of1"],
			"weights": [{
					"name": "conv2d_26/kernel",
					"dtype": "float32",
					"shape": [1, 1, 16, 64]
				}, {
					"name": "conv2d_26/bias",
					"dtype": "float32",
					"shape": [64]
				}
			]
		}, {
			"paths": ["group242-shard1of1"],
			"weights": [{
					"name": "conv2d_27/kernel",
					"dtype": "float32",
					"shape": [1, 1, 64, 16]
				}, {
					"name": "conv2d_27/bias",
					"dtype": "float32",
					"shape": [16]
				}
			]
		}, {
			"paths": ["group243-shard1of1"],
			"weights": [{
					"name": "conv2d_28/kernel",
					"dtype": "float32",
					"shape": [3, 3, 16, 16]
				}, {
					"name": "conv2d_28/bias",
					"dtype": "float32",
					"shape": [16]
				}
			]
		}, {
			"paths": ["group244-shard1of1"],
			"weights": [{
					"name": "conv2d_29/kernel",
					"dtype": "float32",
					"shape": [1, 1, 16, 64]
				}, {
					"name": "conv2d_29/bias",
					"dtype": "float32",
					"shape": [64]
				}
			]
		}, {
			"paths": ["group245-shard1of1"],
			"weights": [{
					"name": "conv2d_3/kernel",
					"dtype": "float32",
					"shape": [1, 1, 8, 32]
				}, {
					"name": "conv2d_3/bias",
					"dtype": "float32",
					"shape": [32]
				}
			]
		}, {
			"paths": ["group246-shard1of1"],
			"weights": [{
					"name": "conv2d_30/kernel",
					"dtype": "float32",
					"shape": [1, 1, 64, 16]
				}, {
					"name": "conv2d_30/bias",
					"dtype": "float32",
					"shape": [16]
				}
			]
		}, {
			"paths": ["group247-shard1of1"],
			"weights": [{
					"name": "conv2d_31/kernel",
					"dtype": "float32",
					"shape": [3, 3, 16, 16]
				}, {
					"name": "conv2d_31/bias",
					"dtype": "float32",
					"shape": [16]
				}
			]
		}, {
			"paths": ["group248-shard1of1"],
			"weights": [{
					"name": "conv2d_32/kernel",
					"dtype": "float32",
					"shape": [1, 1, 16, 64]
				}, {
					"name": "conv2d_32/bias",
					"dtype": "float32",
					"shape": [64]
				}
			]
		}, {
			"paths": ["group249-shard1of1"],
			"weights": [{
					"name": "conv2d_33/kernel",
					"dtype": "float32",
					"shape": [1, 1, 64, 32]
				}, {
					"name": "conv2d_33/bias",
					"dtype": "float32",
					"shape": [32]
				}
			]
		}, {
			"paths": ["group250-shard1of1"],
			"weights": [{
					"name": "conv2d_34/kernel",
					"dtype": "float32",
					"shape": [3, 3, 32, 32]
				}, {
					"name": "conv2d_34/bias",
					"dtype": "float32",
					"shape": [32]
				}
			]
		}, {
			"paths": ["group251-shard1of1"],
			"weights": [{
					"name": "conv2d_35/kernel",
					"dtype": "float32",
					"shape": [1, 1, 32, 128]
				}, {
					"name": "conv2d_35/bias",
					"dtype": "float32",
					"shape": [128]
				}
			]
		}, {
			"paths": ["group252-shard1of1"],
			"weights": [{
					"name": "conv2d_36/kernel",
					"dtype": "float32",
					"shape": [1, 1, 64, 128]
				}, {
					"name": "conv2d_36/bias",
					"dtype": "float32",
					"shape": [128]
				}
			]
		}, {
			"paths": ["group253-shard1of1"],
			"weights": [{
					"name": "conv2d_37/kernel",
					"dtype": "float32",
					"shape": [1, 1, 128, 32]
				}, {
					"name": "conv2d_37/bias",
					"dtype": "float32",
					"shape": [32]
				}
			]
		}, {
			"paths": ["group254-shard1of1"],
			"weights": [{
					"name": "conv2d_38/kernel",
					"dtype": "float32",
					"shape": [3, 3, 32, 32]
				}, {
					"name": "conv2d_38/bias",
					"dtype": "float32",
					"shape": [32]
				}
			]
		}, {
			"paths": ["group255-shard1of1"],
			"weights": [{
					"name": "conv2d_39/kernel",
					"dtype": "float32",
					"shape": [1, 1, 32, 128]
				}, {
					"name": "conv2d_39/bias",
					"dtype": "float32",
					"shape": [128]
				}
			]
		}, {
			"paths": ["group256-shard1of1"],
			"weights": [{
					"name": "conv2d_4/kernel",
					"dtype": "float32",
					"shape": [1, 1, 1, 32]
				}, {
					"name": "conv2d_4/bias",
					"dtype": "float32",
					"shape": [32]
				}
			]
		}, {
			"paths": ["group257-shard1of1"],
			"weights": [{
					"name": "conv2d_40/kernel",
					"dtype": "float32",
					"shape": [1, 1, 128, 32]
				}, {
					"name": "conv2d_40/bias",
					"dtype": "float32",
					"shape": [32]
				}
			]
		}, {
			"paths": ["group258-shard1of1"],
			"weights": [{
					"name": "conv2d_41/kernel",
					"dtype": "float32",
					"shape": [3, 3, 32, 32]
				}, {
					"name": "conv2d_41/bias",
					"dtype": "float32",
					"shape": [32]
				}
			]
		}, {
			"paths": ["group259-shard1of1"],
			"weights": [{
					"name": "conv2d_42/kernel",
					"dtype": "float32",
					"shape": [1, 1, 32, 128]
				}, {
					"name": "conv2d_42/bias",
					"dtype": "float32",
					"shape": [128]
				}
			]
		}, {
			"paths": ["group260-shard1of1"],
			"weights": [{
					"name": "conv2d_43/kernel",
					"dtype": "float32",
					"shape": [1, 1, 128, 32]
				}, {
					"name": "conv2d_43/bias",
					"dtype": "float32",
					"shape": [32]
				}
			]
		}, {
			"paths": ["group261-shard1of1"],
			"weights": [{
					"name": "conv2d_44/kernel",
					"dtype": "float32",
					"shape": [3, 3, 32, 32]
				}, {
					"name": "conv2d_44/bias",
					"dtype": "float32",
					"shape": [32]
				}
			]
		}, {
			"paths": ["group262-shard1of1"],
			"weights": [{
					"name": "conv2d_45/kernel",
					"dtype": "float32",
					"shape": [1, 1, 32, 128]
				}, {
					"name": "conv2d_45/bias",
					"dtype": "float32",
					"shape": [128]
				}
			]
		}, {
			"paths": ["group263-shard1of1"],
			"weights": [{
					"name": "conv2d_46/kernel",
					"dtype": "float32",
					"shape": [1, 1, 128, 32]
				}, {
					"name": "conv2d_46/bias",
					"dtype": "float32",
					"shape": [32]
				}
			]
		}, {
			"paths": ["group264-shard1of1"],
			"weights": [{
					"name": "conv2d_47/kernel",
					"dtype": "float32",
					"shape": [3, 3, 32, 32]
				}, {
					"name": "conv2d_47/bias",
					"dtype": "float32",
					"shape": [32]
				}
			]
		}, {
			"paths": ["group265-shard1of1"],
			"weights": [{
					"name": "conv2d_48/kernel",
					"dtype": "float32",
					"shape": [1, 1, 32, 128]
				}, {
					"name": "conv2d_48/bias",
					"dtype": "float32",
					"shape": [128]
				}
			]
		}, {
			"paths": ["group266-shard1of1"],
			"weights": [{
					"name": "conv2d_49/kernel",
					"dtype": "float32",
					"shape": [1, 1, 128, 32]
				}, {
					"name": "conv2d_49/bias",
					"dtype": "float32",
					"shape": [32]
				}
			]
		}, {
			"paths": ["group267-shard1of1"],
			"weights": [{
					"name": "conv2d_5/kernel",
					"dtype": "float32",
					"shape": [1, 1, 32, 8]
				}, {
					"name": "conv2d_5/bias",
					"dtype": "float32",
					"shape": [8]
				}
			]
		}, {
			"paths": ["group268-shard1of1"],
			"weights": [{
					"name": "conv2d_50/kernel",
					"dtype": "float32",
					"shape": [3, 3, 32, 32]
				}, {
					"name": "conv2d_50/bias",
					"dtype": "float32",
					"shape": [32]
				}
			]
		}, {
			"paths": ["group269-shard1of1"],
			"weights": [{
					"name": "conv2d_51/kernel",
					"dtype": "float32",
					"shape": [1, 1, 32, 128]
				}, {
					"name": "conv2d_51/bias",
					"dtype": "float32",
					"shape": [128]
				}
			]
		}, {
			"paths": ["group270-shard1of1"],
			"weights": [{
					"name": "conv2d_52/kernel",
					"dtype": "float32",
					"shape": [1, 1, 128, 32]
				}, {
					"name": "conv2d_52/bias",
					"dtype": "float32",
					"shape": [32]
				}
			]
		}, {
			"paths": ["group271-shard1of1"],
			"weights": [{
					"name": "conv2d_53/kernel",
					"dtype": "float32",
					"shape": [3, 3, 32, 32]
				}, {
					"name": "conv2d_53/bias",
					"dtype": "float32",
					"shape": [32]
				}
			]
		}, {
			"paths": ["group272-shard1of1"],
			"weights": [{
					"name": "conv2d_54/kernel",
					"dtype": "float32",
					"shape": [1, 1, 32, 128]
				}, {
					"name": "conv2d_54/bias",
					"dtype": "float32",
					"shape": [128]
				}
			]
		}, {
			"paths": ["group273-shard1of1"],
			"weights": [{
					"name": "conv2d_55/kernel",
					"dtype": "float32",
					"shape": [1, 1, 128, 32]
				}, {
					"name": "conv2d_55/bias",
					"dtype": "float32",
					"shape": [32]
				}
			]
		}, {
			"paths": ["group274-shard1of1"],
			"weights": [{
					"name": "conv2d_56/kernel",
					"dtype": "float32",
					"shape": [3, 3, 32, 32]
				}, {
					"name": "conv2d_56/bias",
					"dtype": "float32",
					"shape": [32]
				}
			]
		}, {
			"paths": ["group275-shard1of1"],
			"weights": [{
					"name": "conv2d_57/kernel",
					"dtype": "float32",
					"shape": [1, 1, 32, 128]
				}, {
					"name": "conv2d_57/bias",
					"dtype": "float32",
					"shape": [128]
				}
			]
		}, {
			"paths": ["group276-shard1of1"],
			"weights": [{
					"name": "conv2d_58/kernel",
					"dtype": "float32",
					"shape": [1, 1, 128, 32]
				}, {
					"name": "conv2d_58/bias",
					"dtype": "float32",
					"shape": [32]
				}
			]
		}, {
			"paths": ["group277-shard1of1"],
			"weights": [{
					"name": "conv2d_59/kernel",
					"dtype": "float32",
					"shape": [3, 3, 32, 32]
				}, {
					"name": "conv2d_59/bias",
					"dtype": "float32",
					"shape": [32]
				}
			]
		}, {
			"paths": ["group278-shard1of1"],
			"weights": [{
					"name": "conv2d_6/kernel",
					"dtype": "float32",
					"shape": [3, 3, 8, 8]
				}, {
					"name": "conv2d_6/bias",
					"dtype": "float32",
					"shape": [8]
				}
			]
		}, {
			"paths": ["group279-shard1of1"],
			"weights": [{
					"name": "conv2d_60/kernel",
					"dtype": "float32",
					"shape": [1, 1, 32, 128]
				}, {
					"name": "conv2d_60/bias",
					"dtype": "float32",
					"shape": [128]
				}
			]
		}, {
			"paths": ["group280-shard1of1"],
			"weights": [{
					"name": "conv2d_61/kernel",
					"dtype": "float32",
					"shape": [1, 1, 128, 64]
				}, {
					"name": "conv2d_61/bias",
					"dtype": "float32",
					"shape": [64]
				}
			]
		}, {
			"paths": ["group281-shard1of1"],
			"weights": [{
					"name": "conv2d_62/kernel",
					"dtype": "float32",
					"shape": [3, 3, 64, 64]
				}, {
					"name": "conv2d_62/bias",
					"dtype": "float32",
					"shape": [64]
				}
			]
		}, {
			"paths": ["group282-shard1of1"],
			"weights": [{
					"name": "conv2d_63/kernel",
					"dtype": "float32",
					"shape": [1, 1, 64, 256]
				}, {
					"name": "conv2d_63/bias",
					"dtype": "float32",
					"shape": [256]
				}
			]
		}, {
			"paths": ["group283-shard1of1"],
			"weights": [{
					"name": "conv2d_64/kernel",
					"dtype": "float32",
					"shape": [1, 1, 128, 256]
				}, {
					"name": "conv2d_64/bias",
					"dtype": "float32",
					"shape": [256]
				}
			]
		}, {
			"paths": ["group284-shard1of1"],
			"weights": [{
					"name": "conv2d_65/kernel",
					"dtype": "float32",
					"shape": [1, 1, 256, 64]
				}, {
					"name": "conv2d_65/bias",
					"dtype": "float32",
					"shape": [64]
				}
			]
		}, {
			"paths": ["group285-shard1of1"],
			"weights": [{
					"name": "conv2d_66/kernel",
					"dtype": "float32",
					"shape": [3, 3, 64, 64]
				}, {
					"name": "conv2d_66/bias",
					"dtype": "float32",
					"shape": [64]
				}
			]
		}, {
			"paths": ["group286-shard1of1"],
			"weights": [{
					"name": "conv2d_67/kernel",
					"dtype": "float32",
					"shape": [1, 1, 64, 256]
				}, {
					"name": "conv2d_67/bias",
					"dtype": "float32",
					"shape": [256]
				}
			]
		}, {
			"paths": ["group287-shard1of1"],
			"weights": [{
					"name": "conv2d_68/kernel",
					"dtype": "float32",
					"shape": [1, 1, 256, 64]
				}, {
					"name": "conv2d_68/bias",
					"dtype": "float32",
					"shape": [64]
				}
			]
		}, {
			"paths": ["group288-shard1of1"],
			"weights": [{
					"name": "conv2d_69/kernel",
					"dtype": "float32",
					"shape": [3, 3, 64, 64]
				}, {
					"name": "conv2d_69/bias",
					"dtype": "float32",
					"shape": [64]
				}
			]
		}, {
			"paths": ["group289-shard1of1"],
			"weights": [{
					"name": "conv2d_7/kernel",
					"dtype": "float32",
					"shape": [1, 1, 8, 32]
				}, {
					"name": "conv2d_7/bias",
					"dtype": "float32",
					"shape": [32]
				}
			]
		}, {
			"paths": ["group290-shard1of1"],
			"weights": [{
					"name": "conv2d_70/kernel",
					"dtype": "float32",
					"shape": [1, 1, 64, 256]
				}, {
					"name": "conv2d_70/bias",
					"dtype": "float32",
					"shape": [256]
				}
			]
		}, {
			"paths": ["group291-shard1of1"],
			"weights": [{
					"name": "conv2d_71/kernel",
					"dtype": "float32",
					"shape": [1, 1, 256, 64]
				}, {
					"name": "conv2d_71/bias",
					"dtype": "float32",
					"shape": [64]
				}
			]
		}, {
			"paths": ["group292-shard1of1"],
			"weights": [{
					"name": "conv2d_72/kernel",
					"dtype": "float32",
					"shape": [3, 3, 64, 64]
				}, {
					"name": "conv2d_72/bias",
					"dtype": "float32",
					"shape": [64]
				}
			]
		}, {
			"paths": ["group293-shard1of1"],
			"weights": [{
					"name": "conv2d_73/kernel",
					"dtype": "float32",
					"shape": [1, 1, 64, 256]
				}, {
					"name": "conv2d_73/bias",
					"dtype": "float32",
					"shape": [256]
				}
			]
		}, {
			"paths": ["group294-shard1of1"],
			"weights": [{
					"name": "conv2d_74/kernel",
					"dtype": "float32",
					"shape": [1, 1, 256, 64]
				}, {
					"name": "conv2d_74/bias",
					"dtype": "float32",
					"shape": [64]
				}
			]
		}, {
			"paths": ["group295-shard1of1"],
			"weights": [{
					"name": "conv2d_75/kernel",
					"dtype": "float32",
					"shape": [3, 3, 64, 64]
				}, {
					"name": "conv2d_75/bias",
					"dtype": "float32",
					"shape": [64]
				}
			]
		}, {
			"paths": ["group296-shard1of1"],
			"weights": [{
					"name": "conv2d_76/kernel",
					"dtype": "float32",
					"shape": [1, 1, 64, 256]
				}, {
					"name": "conv2d_76/bias",
					"dtype": "float32",
					"shape": [256]
				}
			]
		}, {
			"paths": ["group297-shard1of1"],
			"weights": [{
					"name": "conv2d_77/kernel",
					"dtype": "float32",
					"shape": [1, 1, 256, 64]
				}, {
					"name": "conv2d_77/bias",
					"dtype": "float32",
					"shape": [64]
				}
			]
		}, {
			"paths": ["group298-shard1of1"],
			"weights": [{
					"name": "conv2d_78/kernel",
					"dtype": "float32",
					"shape": [3, 3, 64, 64]
				}, {
					"name": "conv2d_78/bias",
					"dtype": "float32",
					"shape": [64]
				}
			]
		}, {
			"paths": ["group299-shard1of1"],
			"weights": [{
					"name": "conv2d_79/kernel",
					"dtype": "float32",
					"shape": [1, 1, 64, 256]
				}, {
					"name": "conv2d_79/bias",
					"dtype": "float32",
					"shape": [256]
				}
			]
		}, {
			"paths": ["group300-shard1of1"],
			"weights": [{
					"name": "conv2d_8/kernel",
					"dtype": "float32",
					"shape": [1, 1, 32, 8]
				}, {
					"name": "conv2d_8/bias",
					"dtype": "float32",
					"shape": [8]
				}
			]
		}, {
			"paths": ["group301-shard1of1"],
			"weights": [{
					"name": "conv2d_80/kernel",
					"dtype": "float32",
					"shape": [1, 1, 256, 64]
				}, {
					"name": "conv2d_80/bias",
					"dtype": "float32",
					"shape": [64]
				}
			]
		}, {
			"paths": ["group302-shard1of1"],
			"weights": [{
					"name": "conv2d_81/kernel",
					"dtype": "float32",
					"shape": [3, 3, 64, 64]
				}, {
					"name": "conv2d_81/bias",
					"dtype": "float32",
					"shape": [64]
				}
			]
		}, {
			"paths": ["group303-shard1of1"],
			"weights": [{
					"name": "conv2d_82/kernel",
					"dtype": "float32",
					"shape": [1, 1, 64, 256]
				}, {
					"name": "conv2d_82/bias",
					"dtype": "float32",
					"shape": [256]
				}
			]
		}, {
			"paths": ["group304-shard1of1"],
			"weights": [{
					"name": "conv2d_83/kernel",
					"dtype": "float32",
					"shape": [1, 1, 256, 64]
				}, {
					"name": "conv2d_83/bias",
					"dtype": "float32",
					"shape": [64]
				}
			]
		}, {
			"paths": ["group305-shard1of1"],
			"weights": [{
					"name": "conv2d_84/kernel",
					"dtype": "float32",
					"shape": [3, 3, 64, 64]
				}, {
					"name": "conv2d_84/bias",
					"dtype": "float32",
					"shape": [64]
				}
			]
		}, {
			"paths": ["group306-shard1of1"],
			"weights": [{
					"name": "conv2d_85/kernel",
					"dtype": "float32",
					"shape": [1, 1, 64, 256]
				}, {
					"name": "conv2d_85/bias",
					"dtype": "float32",
					"shape": [256]
				}
			]
		}, {
			"paths": ["group307-shard1of1"],
			"weights": [{
					"name": "conv2d_86/kernel",
					"dtype": "float32",
					"shape": [1, 1, 256, 64]
				}, {
					"name": "conv2d_86/bias",
					"dtype": "float32",
					"shape": [64]
				}
			]
		}, {
			"paths": ["group308-shard1of1"],
			"weights": [{
					"name": "conv2d_87/kernel",
					"dtype": "float32",
					"shape": [3, 3, 64, 64]
				}, {
					"name": "conv2d_87/bias",
					"dtype": "float32",
					"shape": [64]
				}
			]
		}, {
			"paths": ["group309-shard1of1"],
			"weights": [{
					"name": "conv2d_88/kernel",
					"dtype": "float32",
					"shape": [1, 1, 64, 256]
				}, {
					"name": "conv2d_88/bias",
					"dtype": "float32",
					"shape": [256]
				}
			]
		}, {
			"paths": ["group310-shard1of1"],
			"weights": [{
					"name": "conv2d_89/kernel",
					"dtype": "float32",
					"shape": [1, 1, 256, 64]
				}, {
					"name": "conv2d_89/bias",
					"dtype": "float32",
					"shape": [64]
				}
			]
		}, {
			"paths": ["group311-shard1of1"],
			"weights": [{
					"name": "conv2d_9/kernel",
					"dtype": "float32",
					"shape": [3, 3, 8, 8]
				}, {
					"name": "conv2d_9/bias",
					"dtype": "float32",
					"shape": [8]
				}
			]
		}, {
			"paths": ["group312-shard1of1"],
			"weights": [{
					"name": "conv2d_90/kernel",
					"dtype": "float32",
					"shape": [3, 3, 64, 64]
				}, {
					"name": "conv2d_90/bias",
					"dtype": "float32",
					"shape": [64]
				}
			]
		}, {
			"paths": ["group313-shard1of1"],
			"weights": [{
					"name": "conv2d_91/kernel",
					"dtype": "float32",
					"shape": [1, 1, 64, 256]
				}, {
					"name": "conv2d_91/bias",
					"dtype": "float32",
					"shape": [256]
				}
			]
		}, {
			"paths": ["group314-shard1of1"],
			"weights": [{
					"name": "conv2d_92/kernel",
					"dtype": "float32",
					"shape": [1, 1, 256, 64]
				}, {
					"name": "conv2d_92/bias",
					"dtype": "float32",
					"shape": [64]
				}
			]
		}, {
			"paths": ["group315-shard1of1"],
			"weights": [{
					"name": "conv2d_93/kernel",
					"dtype": "float32",
					"shape": [3, 3, 64, 64]
				}, {
					"name": "conv2d_93/bias",
					"dtype": "float32",
					"shape": [64]
				}
			]
		}, {
			"paths": ["group316-shard1of1"],
			"weights": [{
					"name": "conv2d_94/kernel",
					"dtype": "float32",
					"shape": [1, 1, 64, 256]
				}, {
					"name": "conv2d_94/bias",
					"dtype": "float32",
					"shape": [256]
				}
			]
		}, {
			"paths": ["group317-shard1of1"],
			"weights": [{
					"name": "conv2d_95/kernel",
					"dtype": "float32",
					"shape": [1, 1, 256, 64]
				}, {
					"name": "conv2d_95/bias",
					"dtype": "float32",
					"shape": [64]
				}
			]
		}, {
			"paths": ["group318-shard1of1"],
			"weights": [{
					"name": "conv2d_96/kernel",
					"dtype": "float32",
					"shape": [3, 3, 64, 64]
				}, {
					"name": "conv2d_96/bias",
					"dtype": "float32",
					"shape": [64]
				}
			]
		}, {
			"paths": ["group319-shard1of1"],
			"weights": [{
					"name": "conv2d_97/kernel",
					"dtype": "float32",
					"shape": [1, 1, 64, 256]
				}, {
					"name": "conv2d_97/bias",
					"dtype": "float32",
					"shape": [256]
				}
			]
		}, {
			"paths": ["group320-shard1of1"],
			"weights": [{
					"name": "conv2d_98/kernel",
					"dtype": "float32",
					"shape": [3, 3, 32, 32]
				}, {
					"name": "conv2d_98/bias",
					"dtype": "float32",
					"shape": [32]
				}
			]
		}, {
			"paths": ["group321-shard1of1"],
			"weights": [{
					"name": "conv2d_99/kernel",
					"dtype": "float32",
					"shape": [1, 1, 32, 128]
				}, {
					"name": "conv2d_99/bias",
					"dtype": "float32",
					"shape": [128]
				}
			]
		}, {
			"paths": ["group322-shard1of1"],
			"weights": [{
					"name": "conv2d_transpose_1/kernel",
					"dtype": "float32",
					"shape": [1, 1, 32, 256]
				}, {
					"name": "conv2d_transpose_1/kernel_1",
					"dtype": "float32",
					"shape": [32]
				}
			]
		}, {
			"paths": ["group323-shard1of1"],
			"weights": [{
					"name": "conv2d_transpose_2/kernel",
					"dtype": "float32",
					"shape": [1, 1, 128, 256]
				}, {
					"name": "conv2d_transpose_2/kernel_1",
					"dtype": "float32",
					"shape": [128]
				}
			]
		}, {
			"paths": ["group324-shard1of1"],
			"weights": [{
					"name": "conv2d_transpose_3/kernel",
					"dtype": "float32",
					"shape": [1, 1, 16, 128]
				}, {
					"name": "conv2d_transpose_3/kernel_1",
					"dtype": "float32",
					"shape": [16]
				}
			]
		}, {
			"paths": ["group325-shard1of1"],
			"weights": [{
					"name": "conv2d_transpose_4/kernel",
					"dtype": "float32",
					"shape": [1, 1, 64, 128]
				}, {
					"name": "conv2d_transpose_4/kernel_1",
					"dtype": "float32",
					"shape": [64]
				}
			]
		}, {
			"paths": ["group326-shard1of1"],
			"weights": [{
					"name": "conv2d_transpose_5/kernel",
					"dtype": "float32",
					"shape": [1, 1, 8, 64]
				}, {
					"name": "conv2d_transpose_5/kernel_1",
					"dtype": "float32",
					"shape": [8]
				}
			]
		}, {
			"paths": ["group327-shard1of1"],
			"weights": [{
					"name": "conv2d_transpose_6/kernel",
					"dtype": "float32",
					"shape": [1, 1, 32, 64]
				}, {
					"name": "conv2d_transpose_6/kernel_1",
					"dtype": "float32",
					"shape": [32]
				}
			]
		}
	],
	"modelTopology": {
		"keras_version": "2.1.5",
		"training_config": {
			"loss": "MSE",
			"optimizer_config": {
				"config": {
					"decay": 0.0,
					"epsilon": 1e-08,
					"lr": 0.0010000000474974513,
					"amsgrad": false,
					"beta_1": 0.8999999761581421,
					"beta_2": 0.9990000128746033
				},
				"class_name": "Adam"
			},
			"metrics": [],
			"loss_weights": null,
			"sample_weight_mode": null
		},
		"model_config": {
			"config": {
				"name": "model_1",
				"layers": [{
						"name": "input_1",
						"inbound_nodes": [],
						"config": {
							"dtype": "float32",
							"batch_input_shape": [null, null, null, 1],
							"name": "input_1",
							"sparse": false
						},
						"class_name": "InputLayer"
					}, {
						"name": "batch_normalization_1",
						"inbound_nodes": [[["input_1", 0, 0, {}
								]]],
						"config": {
							"name": "batch_normalization_1",
							"scale": true,
							"epsilon": 0.001,
							"moving_mean_initializer": {
								"config": {},
								"class_name": "Zeros"
							},
							"gamma_initializer": {
								"config": {},
								"class_name": "Ones"
							},
							"beta_regularizer": null,
							"beta_constraint": null,
							"trainable": true,
							"gamma_regularizer": null,
							"gamma_constraint": null,
							"beta_initializer": {
								"config": {},
								"class_name": "Zeros"
							},
							"momentum": 0.99,
							"axis": -1,
							"center": true,
							"moving_variance_initializer": {
								"config": {},
								"class_name": "Ones"
							}
						},
						"class_name": "BatchNormalization"
					}, {
						"name": "activation_1",
						"inbound_nodes": [[["batch_normalization_1", 0, 0, {}
								]]],
						"config": {
							"name": "activation_1",
							"activation": "relu",
							"trainable": true
						},
						"class_name": "Activation"
					}, {
						"name": "conv2d_1",
						"inbound_nodes": [[["activation_1", 0, 0, {}
								]]],
						"config": {
							"name": "conv2d_1",
							"kernel_initializer": {
								"config": {
									"scale": 1.0,
									"seed": null,
									"mode": "fan_avg",
									"distribution": "uniform"
								},
								"class_name": "VarianceScaling"
							},
							"kernel_regularizer": null,
							"trainable": true,
							"kernel_constraint": null,
							"bias_initializer": {
								"config": {},
								"class_name": "Zeros"
							},
							"use_bias": true,
							"activity_regularizer": null,
							"data_format": "channels_last",
							"dilation_rate": [1, 1],
							"strides": [1, 1],
							"bias_constraint": null,
							"padding": "valid",
							"bias_regularizer": null,
							"activation": "linear",
							"kernel_size": [1, 1],
							"filters": 8
						},
						"class_name": "Conv2D"
					}, {
						"name": "batch_normalization_2",
						"inbound_nodes": [[["conv2d_1", 0, 0, {}
								]]],
						"config": {
							"name": "batch_normalization_2",
							"scale": true,
							"epsilon": 0.001,
							"moving_mean_initializer": {
								"config": {},
								"class_name": "Zeros"
							},
							"gamma_initializer": {
								"config": {},
								"class_name": "Ones"
							},
							"beta_regularizer": null,
							"beta_constraint": null,
							"trainable": true,
							"gamma_regularizer": null,
							"gamma_constraint": null,
							"beta_initializer": {
								"config": {},
								"class_name": "Zeros"
							},
							"momentum": 0.99,
							"axis": -1,
							"center": true,
							"moving_variance_initializer": {
								"config": {},
								"class_name": "Ones"
							}
						},
						"class_name": "BatchNormalization"
					}, {
						"name": "activation_2",
						"inbound_nodes": [[["batch_normalization_2", 0, 0, {}
								]]],
						"config": {
							"name": "activation_2",
							"activation": "relu",
							"trainable": true
						},
						"class_name": "Activation"
					}, {
						"name": "conv2d_2",
						"inbound_nodes": [[["activation_2", 0, 0, {}
								]]],
						"config": {
							"name": "conv2d_2",
							"kernel_initializer": {
								"config": {
									"scale": 1.0,
									"seed": null,
									"mode": "fan_avg",
									"distribution": "uniform"
								},
								"class_name": "VarianceScaling"
							},
							"kernel_regularizer": null,
							"trainable": true,
							"kernel_constraint": null,
							"bias_initializer": {
								"config": {},
								"class_name": "Zeros"
							},
							"use_bias": true,
							"activity_regularizer": null,
							"data_format": "channels_last",
							"dilation_rate": [1, 1],
							"strides": [1, 1],
							"bias_constraint": null,
							"padding": "same",
							"bias_regularizer": null,
							"activation": "linear",
							"kernel_size": [3, 3],
							"filters": 8
						},
						"class_name": "Conv2D"
					}, {
						"name": "batch_normalization_3",
						"inbound_nodes": [[["conv2d_2", 0, 0, {}
								]]],
						"config": {
							"name": "batch_normalization_3",
							"scale": true,
							"epsilon": 0.001,
							"moving_mean_initializer": {
								"config": {},
								"class_name": "Zeros"
							},
							"gamma_initializer": {
								"config": {},
								"class_name": "Ones"
							},
							"beta_regularizer": null,
							"beta_constraint": null,
							"trainable": true,
							"gamma_regularizer": null,
							"gamma_constraint": null,
							"beta_initializer": {
								"config": {},
								"class_name": "Zeros"
							},
							"momentum": 0.99,
							"axis": -1,
							"center": true,
							"moving_variance_initializer": {
								"config": {},
								"class_name": "Ones"
							}
						},
						"class_name": "BatchNormalization"
					}, {
						"name": "activation_3",
						"inbound_nodes": [[["batch_normalization_3", 0, 0, {}
								]]],
						"config": {
							"name": "activation_3",
							"activation": "relu",
							"trainable": true
						},
						"class_name": "Activation"
					}, {
						"name": "conv2d_3",
						"inbound_nodes": [[["activation_3", 0, 0, {}
								]]],
						"config": {
							"name": "conv2d_3",
							"kernel_initializer": {
								"config": {
									"scale": 1.0,
									"seed": null,
									"mode": "fan_avg",
									"distribution": "uniform"
								},
								"class_name": "VarianceScaling"
							},
							"kernel_regularizer": null,
							"trainable": true,
							"kernel_constraint": null,
							"bias_initializer": {
								"config": {},
								"class_name": "Zeros"
							},
							"use_bias": true,
							"activity_regularizer": null,
							"data_format": "channels_last",
							"dilation_rate": [1, 1],
							"strides": [1, 1],
							"bias_constraint": null,
							"padding": "valid",
							"bias_regularizer": null,
							"activation": "linear",
							"kernel_size": [1, 1],
							"filters": 32
						},
						"class_name": "Conv2D"
					}, {
						"name": "conv2d_4",
						"inbound_nodes": [[["input_1", 0, 0, {}
								]]],
						"config": {
							"name": "conv2d_4",
							"kernel_initializer": {
								"config": {
									"scale": 1.0,
									"seed": null,
									"mode": "fan_avg",
									"distribution": "uniform"
								},
								"class_name": "VarianceScaling"
							},
							"kernel_regularizer": null,
							"trainable": true,
							"kernel_constraint": null,
							"bias_initializer": {
								"config": {},
								"class_name": "Zeros"
							},
							"use_bias": true,
							"activity_regularizer": null,
							"data_format": "channels_last",
							"dilation_rate": [1, 1],
							"strides": [1, 1],
							"bias_constraint": null,
							"padding": "valid",
							"bias_regularizer": null,
							"activation": "linear",
							"kernel_size": [1, 1],
							"filters": 32
						},
						"class_name": "Conv2D"
					}, {
						"name": "add_1",
						"inbound_nodes": [[["conv2d_3", 0, 0, {}
								], ["conv2d_4", 0, 0, {}
								]]],
						"config": {
							"name": "add_1",
							"trainable": true
						},
						"class_name": "Add"
					}, {
						"name": "batch_normalization_4",
						"inbound_nodes": [[["add_1", 0, 0, {}
								]]],
						"config": {
							"name": "batch_normalization_4",
							"scale": true,
							"epsilon": 0.001,
							"moving_mean_initializer": {
								"config": {},
								"class_name": "Zeros"
							},
							"gamma_initializer": {
								"config": {},
								"class_name": "Ones"
							},
							"beta_regularizer": null,
							"beta_constraint": null,
							"trainable": true,
							"gamma_regularizer": null,
							"gamma_constraint": null,
							"beta_initializer": {
								"config": {},
								"class_name": "Zeros"
							},
							"momentum": 0.99,
							"axis": -1,
							"center": true,
							"moving_variance_initializer": {
								"config": {},
								"class_name": "Ones"
							}
						},
						"class_name": "BatchNormalization"
					}, {
						"name": "activation_4",
						"inbound_nodes": [[["batch_normalization_4", 0, 0, {}
								]]],
						"config": {
							"name": "activation_4",
							"activation": "relu",
							"trainable": true
						},
						"class_name": "Activation"
					}, {
						"name": "conv2d_5",
						"inbound_nodes": [[["activation_4", 0, 0, {}
								]]],
						"config": {
							"name": "conv2d_5",
							"kernel_initializer": {
								"config": {
									"scale": 1.0,
									"seed": null,
									"mode": "fan_avg",
									"distribution": "uniform"
								},
								"class_name": "VarianceScaling"
							},
							"kernel_regularizer": null,
							"trainable": true,
							"kernel_constraint": null,
							"bias_initializer": {
								"config": {},
								"class_name": "Zeros"
							},
							"use_bias": true,
							"activity_regularizer": null,
							"data_format": "channels_last",
							"dilation_rate": [1, 1],
							"strides": [1, 1],
							"bias_constraint": null,
							"padding": "valid",
							"bias_regularizer": null,
							"activation": "linear",
							"kernel_size": [1, 1],
							"filters": 8
						},
						"class_name": "Conv2D"
					}, {
						"name": "batch_normalization_5",
						"inbound_nodes": [[["conv2d_5", 0, 0, {}
								]]],
						"config": {
							"name": "batch_normalization_5",
							"scale": true,
							"epsilon": 0.001,
							"moving_mean_initializer": {
								"config": {},
								"class_name": "Zeros"
							},
							"gamma_initializer": {
								"config": {},
								"class_name": "Ones"
							},
							"beta_regularizer": null,
							"beta_constraint": null,
							"trainable": true,
							"gamma_regularizer": null,
							"gamma_constraint": null,
							"beta_initializer": {
								"config": {},
								"class_name": "Zeros"
							},
							"momentum": 0.99,
							"axis": -1,
							"center": true,
							"moving_variance_initializer": {
								"config": {},
								"class_name": "Ones"
							}
						},
						"class_name": "BatchNormalization"
					}, {
						"name": "activation_5",
						"inbound_nodes": [[["batch_normalization_5", 0, 0, {}
								]]],
						"config": {
							"name": "activation_5",
							"activation": "relu",
							"trainable": true
						},
						"class_name": "Activation"
					}, {
						"name": "conv2d_6",
						"inbound_nodes": [[["activation_5", 0, 0, {}
								]]],
						"config": {
							"name": "conv2d_6",
							"kernel_initializer": {
								"config": {
									"scale": 1.0,
									"seed": null,
									"mode": "fan_avg",
									"distribution": "uniform"
								},
								"class_name": "VarianceScaling"
							},
							"kernel_regularizer": null,
							"trainable": true,
							"kernel_constraint": null,
							"bias_initializer": {
								"config": {},
								"class_name": "Zeros"
							},
							"use_bias": true,
							"activity_regularizer": null,
							"data_format": "channels_last",
							"dilation_rate": [1, 1],
							"strides": [1, 1],
							"bias_constraint": null,
							"padding": "same",
							"bias_regularizer": null,
							"activation": "linear",
							"kernel_size": [3, 3],
							"filters": 8
						},
						"class_name": "Conv2D"
					}, {
						"name": "batch_normalization_6",
						"inbound_nodes": [[["conv2d_6", 0, 0, {}
								]]],
						"config": {
							"name": "batch_normalization_6",
							"scale": true,
							"epsilon": 0.001,
							"moving_mean_initializer": {
								"config": {},
								"class_name": "Zeros"
							},
							"gamma_initializer": {
								"config": {},
								"class_name": "Ones"
							},
							"beta_regularizer": null,
							"beta_constraint": null,
							"trainable": true,
							"gamma_regularizer": null,
							"gamma_constraint": null,
							"beta_initializer": {
								"config": {},
								"class_name": "Zeros"
							},
							"momentum": 0.99,
							"axis": -1,
							"center": true,
							"moving_variance_initializer": {
								"config": {},
								"class_name": "Ones"
							}
						},
						"class_name": "BatchNormalization"
					}, {
						"name": "activation_6",
						"inbound_nodes": [[["batch_normalization_6", 0, 0, {}
								]]],
						"config": {
							"name": "activation_6",
							"activation": "relu",
							"trainable": true
						},
						"class_name": "Activation"
					}, {
						"name": "conv2d_7",
						"inbound_nodes": [[["activation_6", 0, 0, {}
								]]],
						"config": {
							"name": "conv2d_7",
							"kernel_initializer": {
								"config": {
									"scale": 1.0,
									"seed": null,
									"mode": "fan_avg",
									"distribution": "uniform"
								},
								"class_name": "VarianceScaling"
							},
							"kernel_regularizer": null,
							"trainable": true,
							"kernel_constraint": null,
							"bias_initializer": {
								"config": {},
								"class_name": "Zeros"
							},
							"use_bias": true,
							"activity_regularizer": null,
							"data_format": "channels_last",
							"dilation_rate": [1, 1],
							"strides": [1, 1],
							"bias_constraint": null,
							"padding": "valid",
							"bias_regularizer": null,
							"activation": "linear",
							"kernel_size": [1, 1],
							"filters": 32
						},
						"class_name": "Conv2D"
					}, {
						"name": "add_2",
						"inbound_nodes": [[["conv2d_7", 0, 0, {}
								], ["add_1", 0, 0, {}
								]]],
						"config": {
							"name": "add_2",
							"trainable": true
						},
						"class_name": "Add"
					}, {
						"name": "batch_normalization_7",
						"inbound_nodes": [[["add_2", 0, 0, {}
								]]],
						"config": {
							"name": "batch_normalization_7",
							"scale": true,
							"epsilon": 0.001,
							"moving_mean_initializer": {
								"config": {},
								"class_name": "Zeros"
							},
							"gamma_initializer": {
								"config": {},
								"class_name": "Ones"
							},
							"beta_regularizer": null,
							"beta_constraint": null,
							"trainable": true,
							"gamma_regularizer": null,
							"gamma_constraint": null,
							"beta_initializer": {
								"config": {},
								"class_name": "Zeros"
							},
							"momentum": 0.99,
							"axis": -1,
							"center": true,
							"moving_variance_initializer": {
								"config": {},
								"class_name": "Ones"
							}
						},
						"class_name": "BatchNormalization"
					}, {
						"name": "activation_7",
						"inbound_nodes": [[["batch_normalization_7", 0, 0, {}
								]]],
						"config": {
							"name": "activation_7",
							"activation": "relu",
							"trainable": true
						},
						"class_name": "Activation"
					}, {
						"name": "conv2d_8",
						"inbound_nodes": [[["activation_7", 0, 0, {}
								]]],
						"config": {
							"name": "conv2d_8",
							"kernel_initializer": {
								"config": {
									"scale": 1.0,
									"seed": null,
									"mode": "fan_avg",
									"distribution": "uniform"
								},
								"class_name": "VarianceScaling"
							},
							"kernel_regularizer": null,
							"trainable": true,
							"kernel_constraint": null,
							"bias_initializer": {
								"config": {},
								"class_name": "Zeros"
							},
							"use_bias": true,
							"activity_regularizer": null,
							"data_format": "channels_last",
							"dilation_rate": [1, 1],
							"strides": [1, 1],
							"bias_constraint": null,
							"padding": "valid",
							"bias_regularizer": null,
							"activation": "linear",
							"kernel_size": [1, 1],
							"filters": 8
						},
						"class_name": "Conv2D"
					}, {
						"name": "batch_normalization_8",
						"inbound_nodes": [[["conv2d_8", 0, 0, {}
								]]],
						"config": {
							"name": "batch_normalization_8",
							"scale": true,
							"epsilon": 0.001,
							"moving_mean_initializer": {
								"config": {},
								"class_name": "Zeros"
							},
							"gamma_initializer": {
								"config": {},
								"class_name": "Ones"
							},
							"beta_regularizer": null,
							"beta_constraint": null,
							"trainable": true,
							"gamma_regularizer": null,
							"gamma_constraint": null,
							"beta_initializer": {
								"config": {},
								"class_name": "Zeros"
							},
							"momentum": 0.99,
							"axis": -1,
							"center": true,
							"moving_variance_initializer": {
								"config": {},
								"class_name": "Ones"
							}
						},
						"class_name": "BatchNormalization"
					}, {
						"name": "activation_8",
						"inbound_nodes": [[["batch_normalization_8", 0, 0, {}
								]]],
						"config": {
							"name": "activation_8",
							"activation": "relu",
							"trainable": true
						},
						"class_name": "Activation"
					}, {
						"name": "conv2d_9",
						"inbound_nodes": [[["activation_8", 0, 0, {}
								]]],
						"config": {
							"name": "conv2d_9",
							"kernel_initializer": {
								"config": {
									"scale": 1.0,
									"seed": null,
									"mode": "fan_avg",
									"distribution": "uniform"
								},
								"class_name": "VarianceScaling"
							},
							"kernel_regularizer": null,
							"trainable": true,
							"kernel_constraint": null,
							"bias_initializer": {
								"config": {},
								"class_name": "Zeros"
							},
							"use_bias": true,
							"activity_regularizer": null,
							"data_format": "channels_last",
							"dilation_rate": [1, 1],
							"strides": [1, 1],
							"bias_constraint": null,
							"padding": "same",
							"bias_regularizer": null,
							"activation": "linear",
							"kernel_size": [3, 3],
							"filters": 8
						},
						"class_name": "Conv2D"
					}, {
						"name": "batch_normalization_9",
						"inbound_nodes": [[["conv2d_9", 0, 0, {}
								]]],
						"config": {
							"name": "batch_normalization_9",
							"scale": true,
							"epsilon": 0.001,
							"moving_mean_initializer": {
								"config": {},
								"class_name": "Zeros"
							},
							"gamma_initializer": {
								"config": {},
								"class_name": "Ones"
							},
							"beta_regularizer": null,
							"beta_constraint": null,
							"trainable": true,
							"gamma_regularizer": null,
							"gamma_constraint": null,
							"beta_initializer": {
								"config": {},
								"class_name": "Zeros"
							},
							"momentum": 0.99,
							"axis": -1,
							"center": true,
							"moving_variance_initializer": {
								"config": {},
								"class_name": "Ones"
							}
						},
						"class_name": "BatchNormalization"
					}, {
						"name": "activation_9",
						"inbound_nodes": [[["batch_normalization_9", 0, 0, {}
								]]],
						"config": {
							"name": "activation_9",
							"activation": "relu",
							"trainable": true
						},
						"class_name": "Activation"
					}, {
						"name": "conv2d_10",
						"inbound_nodes": [[["activation_9", 0, 0, {}
								]]],
						"config": {
							"name": "conv2d_10",
							"kernel_initializer": {
								"config": {
									"scale": 1.0,
									"seed": null,
									"mode": "fan_avg",
									"distribution": "uniform"
								},
								"class_name": "VarianceScaling"
							},
							"kernel_regularizer": null,
							"trainable": true,
							"kernel_constraint": null,
							"bias_initializer": {
								"config": {},
								"class_name": "Zeros"
							},
							"use_bias": true,
							"activity_regularizer": null,
							"data_format": "channels_last",
							"dilation_rate": [1, 1],
							"strides": [1, 1],
							"bias_constraint": null,
							"padding": "valid",
							"bias_regularizer": null,
							"activation": "linear",
							"kernel_size": [1, 1],
							"filters": 32
						},
						"class_name": "Conv2D"
					}, {
						"name": "add_3",
						"inbound_nodes": [[["conv2d_10", 0, 0, {}
								], ["add_2", 0, 0, {}
								]]],
						"config": {
							"name": "add_3",
							"trainable": true
						},
						"class_name": "Add"
					}, {
						"name": "batch_normalization_10",
						"inbound_nodes": [[["add_3", 0, 0, {}
								]]],
						"config": {
							"name": "batch_normalization_10",
							"scale": true,
							"epsilon": 0.001,
							"moving_mean_initializer": {
								"config": {},
								"class_name": "Zeros"
							},
							"gamma_initializer": {
								"config": {},
								"class_name": "Ones"
							},
							"beta_regularizer": null,
							"beta_constraint": null,
							"trainable": true,
							"gamma_regularizer": null,
							"gamma_constraint": null,
							"beta_initializer": {
								"config": {},
								"class_name": "Zeros"
							},
							"momentum": 0.99,
							"axis": -1,
							"center": true,
							"moving_variance_initializer": {
								"config": {},
								"class_name": "Ones"
							}
						},
						"class_name": "BatchNormalization"
					}, {
						"name": "activation_10",
						"inbound_nodes": [[["batch_normalization_10", 0, 0, {}
								]]],
						"config": {
							"name": "activation_10",
							"activation": "relu",
							"trainable": true
						},
						"class_name": "Activation"
					}, {
						"name": "conv2d_11",
						"inbound_nodes": [[["activation_10", 0, 0, {}
								]]],
						"config": {
							"name": "conv2d_11",
							"kernel_initializer": {
								"config": {
									"scale": 1.0,
									"seed": null,
									"mode": "fan_avg",
									"distribution": "uniform"
								},
								"class_name": "VarianceScaling"
							},
							"kernel_regularizer": null,
							"trainable": true,
							"kernel_constraint": null,
							"bias_initializer": {
								"config": {},
								"class_name": "Zeros"
							},
							"use_bias": true,
							"activity_regularizer": null,
							"data_format": "channels_last",
							"dilation_rate": [1, 1],
							"strides": [1, 1],
							"bias_constraint": null,
							"padding": "valid",
							"bias_regularizer": null,
							"activation": "linear",
							"kernel_size": [1, 1],
							"filters": 8
						},
						"class_name": "Conv2D"
					}, {
						"name": "batch_normalization_11",
						"inbound_nodes": [[["conv2d_11", 0, 0, {}
								]]],
						"config": {
							"name": "batch_normalization_11",
							"scale": true,
							"epsilon": 0.001,
							"moving_mean_initializer": {
								"config": {},
								"class_name": "Zeros"
							},
							"gamma_initializer": {
								"config": {},
								"class_name": "Ones"
							},
							"beta_regularizer": null,
							"beta_constraint": null,
							"trainable": true,
							"gamma_regularizer": null,
							"gamma_constraint": null,
							"beta_initializer": {
								"config": {},
								"class_name": "Zeros"
							},
							"momentum": 0.99,
							"axis": -1,
							"center": true,
							"moving_variance_initializer": {
								"config": {},
								"class_name": "Ones"
							}
						},
						"class_name": "BatchNormalization"
					}, {
						"name": "activation_11",
						"inbound_nodes": [[["batch_normalization_11", 0, 0, {}
								]]],
						"config": {
							"name": "activation_11",
							"activation": "relu",
							"trainable": true
						},
						"class_name": "Activation"
					}, {
						"name": "conv2d_12",
						"inbound_nodes": [[["activation_11", 0, 0, {}
								]]],
						"config": {
							"name": "conv2d_12",
							"kernel_initializer": {
								"config": {
									"scale": 1.0,
									"seed": null,
									"mode": "fan_avg",
									"distribution": "uniform"
								},
								"class_name": "VarianceScaling"
							},
							"kernel_regularizer": null,
							"trainable": true,
							"kernel_constraint": null,
							"bias_initializer": {
								"config": {},
								"class_name": "Zeros"
							},
							"use_bias": true,
							"activity_regularizer": null,
							"data_format": "channels_last",
							"dilation_rate": [1, 1],
							"strides": [1, 1],
							"bias_constraint": null,
							"padding": "same",
							"bias_regularizer": null,
							"activation": "linear",
							"kernel_size": [3, 3],
							"filters": 8
						},
						"class_name": "Conv2D"
					}, {
						"name": "batch_normalization_12",
						"inbound_nodes": [[["conv2d_12", 0, 0, {}
								]]],
						"config": {
							"name": "batch_normalization_12",
							"scale": true,
							"epsilon": 0.001,
							"moving_mean_initializer": {
								"config": {},
								"class_name": "Zeros"
							},
							"gamma_initializer": {
								"config": {},
								"class_name": "Ones"
							},
							"beta_regularizer": null,
							"beta_constraint": null,
							"trainable": true,
							"gamma_regularizer": null,
							"gamma_constraint": null,
							"beta_initializer": {
								"config": {},
								"class_name": "Zeros"
							},
							"momentum": 0.99,
							"axis": -1,
							"center": true,
							"moving_variance_initializer": {
								"config": {},
								"class_name": "Ones"
							}
						},
						"class_name": "BatchNormalization"
					}, {
						"name": "activation_12",
						"inbound_nodes": [[["batch_normalization_12", 0, 0, {}
								]]],
						"config": {
							"name": "activation_12",
							"activation": "relu",
							"trainable": true
						},
						"class_name": "Activation"
					}, {
						"name": "conv2d_13",
						"inbound_nodes": [[["activation_12", 0, 0, {}
								]]],
						"config": {
							"name": "conv2d_13",
							"kernel_initializer": {
								"config": {
									"scale": 1.0,
									"seed": null,
									"mode": "fan_avg",
									"distribution": "uniform"
								},
								"class_name": "VarianceScaling"
							},
							"kernel_regularizer": null,
							"trainable": true,
							"kernel_constraint": null,
							"bias_initializer": {
								"config": {},
								"class_name": "Zeros"
							},
							"use_bias": true,
							"activity_regularizer": null,
							"data_format": "channels_last",
							"dilation_rate": [1, 1],
							"strides": [1, 1],
							"bias_constraint": null,
							"padding": "valid",
							"bias_regularizer": null,
							"activation": "linear",
							"kernel_size": [1, 1],
							"filters": 32
						},
						"class_name": "Conv2D"
					}, {
						"name": "add_4",
						"inbound_nodes": [[["conv2d_13", 0, 0, {}
								], ["add_3", 0, 0, {}
								]]],
						"config": {
							"name": "add_4",
							"trainable": true
						},
						"class_name": "Add"
					}, {
						"name": "batch_normalization_13",
						"inbound_nodes": [[["add_4", 0, 0, {}
								]]],
						"config": {
							"name": "batch_normalization_13",
							"scale": true,
							"epsilon": 0.001,
							"moving_mean_initializer": {
								"config": {},
								"class_name": "Zeros"
							},
							"gamma_initializer": {
								"config": {},
								"class_name": "Ones"
							},
							"beta_regularizer": null,
							"beta_constraint": null,
							"trainable": true,
							"gamma_regularizer": null,
							"gamma_constraint": null,
							"beta_initializer": {
								"config": {},
								"class_name": "Zeros"
							},
							"momentum": 0.99,
							"axis": -1,
							"center": true,
							"moving_variance_initializer": {
								"config": {},
								"class_name": "Ones"
							}
						},
						"class_name": "BatchNormalization"
					}, {
						"name": "activation_13",
						"inbound_nodes": [[["batch_normalization_13", 0, 0, {}
								]]],
						"config": {
							"name": "activation_13",
							"activation": "relu",
							"trainable": true
						},
						"class_name": "Activation"
					}, {
						"name": "conv2d_14",
						"inbound_nodes": [[["activation_13", 0, 0, {}
								]]],
						"config": {
							"name": "conv2d_14",
							"kernel_initializer": {
								"config": {
									"scale": 1.0,
									"seed": null,
									"mode": "fan_avg",
									"distribution": "uniform"
								},
								"class_name": "VarianceScaling"
							},
							"kernel_regularizer": null,
							"trainable": true,
							"kernel_constraint": null,
							"bias_initializer": {
								"config": {},
								"class_name": "Zeros"
							},
							"use_bias": true,
							"activity_regularizer": null,
							"data_format": "channels_last",
							"dilation_rate": [1, 1],
							"strides": [2, 2],
							"bias_constraint": null,
							"padding": "valid",
							"bias_regularizer": null,
							"activation": "linear",
							"kernel_size": [1, 1],
							"filters": 16
						},
						"class_name": "Conv2D"
					}, {
						"name": "batch_normalization_14",
						"inbound_nodes": [[["conv2d_14", 0, 0, {}
								]]],
						"config": {
							"name": "batch_normalization_14",
							"scale": true,
							"epsilon": 0.001,
							"moving_mean_initializer": {
								"config": {},
								"class_name": "Zeros"
							},
							"gamma_initializer": {
								"config": {},
								"class_name": "Ones"
							},
							"beta_regularizer": null,
							"beta_constraint": null,
							"trainable": true,
							"gamma_regularizer": null,
							"gamma_constraint": null,
							"beta_initializer": {
								"config": {},
								"class_name": "Zeros"
							},
							"momentum": 0.99,
							"axis": -1,
							"center": true,
							"moving_variance_initializer": {
								"config": {},
								"class_name": "Ones"
							}
						},
						"class_name": "BatchNormalization"
					}, {
						"name": "activation_14",
						"inbound_nodes": [[["batch_normalization_14", 0, 0, {}
								]]],
						"config": {
							"name": "activation_14",
							"activation": "relu",
							"trainable": true
						},
						"class_name": "Activation"
					}, {
						"name": "conv2d_15",
						"inbound_nodes": [[["activation_14", 0, 0, {}
								]]],
						"config": {
							"name": "conv2d_15",
							"kernel_initializer": {
								"config": {
									"scale": 1.0,
									"seed": null,
									"mode": "fan_avg",
									"distribution": "uniform"
								},
								"class_name": "VarianceScaling"
							},
							"kernel_regularizer": null,
							"trainable": true,
							"kernel_constraint": null,
							"bias_initializer": {
								"config": {},
								"class_name": "Zeros"
							},
							"use_bias": true,
							"activity_regularizer": null,
							"data_format": "channels_last",
							"dilation_rate": [1, 1],
							"strides": [1, 1],
							"bias_constraint": null,
							"padding": "same",
							"bias_regularizer": null,
							"activation": "linear",
							"kernel_size": [3, 3],
							"filters": 16
						},
						"class_name": "Conv2D"
					}, {
						"name": "batch_normalization_15",
						"inbound_nodes": [[["conv2d_15", 0, 0, {}
								]]],
						"config": {
							"name": "batch_normalization_15",
							"scale": true,
							"epsilon": 0.001,
							"moving_mean_initializer": {
								"config": {},
								"class_name": "Zeros"
							},
							"gamma_initializer": {
								"config": {},
								"class_name": "Ones"
							},
							"beta_regularizer": null,
							"beta_constraint": null,
							"trainable": true,
							"gamma_regularizer": null,
							"gamma_constraint": null,
							"beta_initializer": {
								"config": {},
								"class_name": "Zeros"
							},
							"momentum": 0.99,
							"axis": -1,
							"center": true,
							"moving_variance_initializer": {
								"config": {},
								"class_name": "Ones"
							}
						},
						"class_name": "BatchNormalization"
					}, {
						"name": "activation_15",
						"inbound_nodes": [[["batch_normalization_15", 0, 0, {}
								]]],
						"config": {
							"name": "activation_15",
							"activation": "relu",
							"trainable": true
						},
						"class_name": "Activation"
					}, {
						"name": "conv2d_16",
						"inbound_nodes": [[["activation_15", 0, 0, {}
								]]],
						"config": {
							"name": "conv2d_16",
							"kernel_initializer": {
								"config": {
									"scale": 1.0,
									"seed": null,
									"mode": "fan_avg",
									"distribution": "uniform"
								},
								"class_name": "VarianceScaling"
							},
							"kernel_regularizer": null,
							"trainable": true,
							"kernel_constraint": null,
							"bias_initializer": {
								"config": {},
								"class_name": "Zeros"
							},
							"use_bias": true,
							"activity_regularizer": null,
							"data_format": "channels_last",
							"dilation_rate": [1, 1],
							"strides": [1, 1],
							"bias_constraint": null,
							"padding": "valid",
							"bias_regularizer": null,
							"activation": "linear",
							"kernel_size": [1, 1],
							"filters": 64
						},
						"class_name": "Conv2D"
					}, {
						"name": "conv2d_17",
						"inbound_nodes": [[["add_4", 0, 0, {}
								]]],
						"config": {
							"name": "conv2d_17",
							"kernel_initializer": {
								"config": {
									"scale": 1.0,
									"seed": null,
									"mode": "fan_avg",
									"distribution": "uniform"
								},
								"class_name": "VarianceScaling"
							},
							"kernel_regularizer": null,
							"trainable": true,
							"kernel_constraint": null,
							"bias_initializer": {
								"config": {},
								"class_name": "Zeros"
							},
							"use_bias": true,
							"activity_regularizer": null,
							"data_format": "channels_last",
							"dilation_rate": [1, 1],
							"strides": [2, 2],
							"bias_constraint": null,
							"padding": "valid",
							"bias_regularizer": null,
							"activation": "linear",
							"kernel_size": [1, 1],
							"filters": 64
						},
						"class_name": "Conv2D"
					}, {
						"name": "add_5",
						"inbound_nodes": [[["conv2d_16", 0, 0, {}
…
							"momentum": 0.99,
							"axis": -1,
							"center": true,
							"moving_variance_initializer": {
								"config": {},
								"class_name": "Ones"
							}
						},
						"class_name": "BatchNormalization"
					}, {
						"name": "activation_138",
						"inbound_nodes": [[["batch_normalization_138", 0, 0, {}
								]]],
						"config": {
							"name": "activation_138",
							"activation": "relu",
							"trainable": true
						},
						"class_name": "Activation"
					}, {
						"name": "conv2d_140",
						"inbound_nodes": [[["activation_138", 0, 0, {}
								]]],
						"config": {
							"name": "conv2d_140",
							"kernel_initializer": {
								"config": {
									"scale": 1.0,
									"seed": null,
									"mode": "fan_avg",
									"distribution": "uniform"
								},
								"class_name": "VarianceScaling"
							},
							"kernel_regularizer": null,
							"trainable": true,
							"kernel_constraint": null,
							"bias_initializer": {
								"config": {},
								"class_name": "Zeros"
							},
							"use_bias": true,
							"activity_regularizer": null,
							"data_format": "channels_last",
							"dilation_rate": [1, 1],
							"strides": [1, 1],
							"bias_constraint": null,
							"padding": "valid",
							"bias_regularizer": null,
							"activation": "linear",
							"kernel_size": [1, 1],
							"filters": 64
						},
						"class_name": "Conv2D"
					}, {
						"name": "add_47",
						"inbound_nodes": [[["conv2d_140", 0, 0, {}
								], ["add_46", 0, 0, {}
								]]],
						"config": {
							"name": "add_47",
							"trainable": true
						},
						"class_name": "Add"
					}, {
						"name": "add_48",
						"inbound_nodes": [[["add_47", 0, 0, {}
								], ["add_10", 0, 0, {}
								]]],
						"config": {
							"name": "add_48",
							"trainable": true
						},
						"class_name": "Add"
					}, {
						"name": "batch_normalization_139",
						"inbound_nodes": [[["add_48", 0, 0, {}
								]]],
						"config": {
							"name": "batch_normalization_139",
							"scale": true,
							"epsilon": 0.001,
							"moving_mean_initializer": {
								"config": {},
								"class_name": "Zeros"
							},
							"gamma_initializer": {
								"config": {},
								"class_name": "Ones"
							},
							"beta_regularizer": null,
							"beta_constraint": null,
							"trainable": true,
							"gamma_regularizer": null,
							"gamma_constraint": null,
							"beta_initializer": {
								"config": {},
								"class_name": "Zeros"
							},
							"momentum": 0.99,
							"axis": -1,
							"center": true,
							"moving_variance_initializer": {
								"config": {},
								"class_name": "Ones"
							}
						},
						"class_name": "BatchNormalization"
					}, {
						"name": "activation_139",
						"inbound_nodes": [[["batch_normalization_139", 0, 0, {}
								]]],
						"config": {
							"name": "activation_139",
							"activation": "relu",
							"trainable": true
						},
						"class_name": "Activation"
					}, {
						"name": "conv2d_transpose_5",
						"inbound_nodes": [[["activation_139", 0, 0, {}
								]]],
						"config": {
							"name": "conv2d_transpose_5",
							"kernel_initializer": {
								"config": {
									"scale": 1.0,
									"seed": null,
									"mode": "fan_avg",
									"distribution": "uniform"
								},
								"class_name": "VarianceScaling"
							},
							"kernel_regularizer": null,
							"trainable": true,
							"kernel_constraint": null,
							"bias_initializer": {
								"config": {},
								"class_name": "Zeros"
							},
							"use_bias": true,
							"activity_regularizer": null,
							"data_format": "channels_last",
							"strides": [2, 2],
							"bias_constraint": null,
							"padding": "valid",
							"bias_regularizer": null,
							"activation": "linear",
							"kernel_size": [1, 1],
							"filters": 8
						},
						"class_name": "Conv2DTranspose"
					}, {
						"name": "batch_normalization_140",
						"inbound_nodes": [[["conv2d_transpose_5", 0, 0, {}
								]]],
						"config": {
							"name": "batch_normalization_140",
							"scale": true,
							"epsilon": 0.001,
							"moving_mean_initializer": {
								"config": {},
								"class_name": "Zeros"
							},
							"gamma_initializer": {
								"config": {},
								"class_name": "Ones"
							},
							"beta_regularizer": null,
							"beta_constraint": null,
							"trainable": true,
							"gamma_regularizer": null,
							"gamma_constraint": null,
							"beta_initializer": {
								"config": {},
								"class_name": "Zeros"
							},
							"momentum": 0.99,
							"axis": -1,
							"center": true,
							"moving_variance_initializer": {
								"config": {},
								"class_name": "Ones"
							}
						},
						"class_name": "BatchNormalization"
					}, {
						"name": "activation_140",
						"inbound_nodes": [[["batch_normalization_140", 0, 0, {}
								]]],
						"config": {
							"name": "activation_140",
							"activation": "relu",
							"trainable": true
						},
						"class_name": "Activation"
					}, {
						"name": "conv2d_141",
						"inbound_nodes": [[["activation_140", 0, 0, {}
								]]],
						"config": {
							"name": "conv2d_141",
							"kernel_initializer": {
								"config": {
									"scale": 1.0,
									"seed": null,
									"mode": "fan_avg",
									"distribution": "uniform"
								},
								"class_name": "VarianceScaling"
							},
							"kernel_regularizer": null,
							"trainable": true,
							"kernel_constraint": null,
							"bias_initializer": {
								"config": {},
								"class_name": "Zeros"
							},
							"use_bias": true,
							"activity_regularizer": null,
							"data_format": "channels_last",
							"dilation_rate": [1, 1],
							"strides": [1, 1],
							"bias_constraint": null,
							"padding": "same",
							"bias_regularizer": null,
							"activation": "linear",
							"kernel_size": [3, 3],
							"filters": 8
						},
						"class_name": "Conv2D"
					}, {
						"name": "batch_normalization_141",
						"inbound_nodes": [[["conv2d_141", 0, 0, {}
								]]],
						"config": {
							"name": "batch_normalization_141",
							"scale": true,
							"epsilon": 0.001,
							"moving_mean_initializer": {
								"config": {},
								"class_name": "Zeros"
							},
							"gamma_initializer": {
								"config": {},
								"class_name": "Ones"
							},
							"beta_regularizer": null,
							"beta_constraint": null,
							"trainable": true,
							"gamma_regularizer": null,
							"gamma_constraint": null,
							"beta_initializer": {
								"config": {},
								"class_name": "Zeros"
							},
							"momentum": 0.99,
							"axis": -1,
							"center": true,
							"moving_variance_initializer": {
								"config": {},
								"class_name": "Ones"
							}
						},
						"class_name": "BatchNormalization"
					}, {
						"name": "activation_141",
						"inbound_nodes": [[["batch_normalization_141", 0, 0, {}
								]]],
						"config": {
							"name": "activation_141",
							"activation": "relu",
							"trainable": true
						},
						"class_name": "Activation"
					}, {
						"name": "conv2d_142",
						"inbound_nodes": [[["activation_141", 0, 0, {}
								]]],
						"config": {
							"name": "conv2d_142",
							"kernel_initializer": {
								"config": {
									"scale": 1.0,
									"seed": null,
									"mode": "fan_avg",
									"distribution": "uniform"
								},
								"class_name": "VarianceScaling"
							},
							"kernel_regularizer": null,
							"trainable": true,
							"kernel_constraint": null,
							"bias_initializer": {
								"config": {},
								"class_name": "Zeros"
							},
							"use_bias": true,
							"activity_regularizer": null,
							"data_format": "channels_last",
							"dilation_rate": [1, 1],
							"strides": [1, 1],
							"bias_constraint": null,
							"padding": "valid",
							"bias_regularizer": null,
							"activation": "linear",
							"kernel_size": [1, 1],
							"filters": 32
						},
						"class_name": "Conv2D"
					}, {
						"name": "conv2d_transpose_6",
						"inbound_nodes": [[["add_48", 0, 0, {}
								]]],
						"config": {
							"name": "conv2d_transpose_6",
							"kernel_initializer": {
								"config": {
									"scale": 1.0,
									"seed": null,
									"mode": "fan_avg",
									"distribution": "uniform"
								},
								"class_name": "VarianceScaling"
							},
							"kernel_regularizer": null,
							"trainable": true,
							"kernel_constraint": null,
							"bias_initializer": {
								"config": {},
								"class_name": "Zeros"
							},
							"use_bias": true,
							"activity_regularizer": null,
							"data_format": "channels_last",
							"strides": [2, 2],
							"bias_constraint": null,
							"padding": "valid",
							"bias_regularizer": null,
							"activation": "linear",
							"kernel_size": [1, 1],
							"filters": 32
						},
						"class_name": "Conv2DTranspose"
					}, {
						"name": "add_49",
						"inbound_nodes": [[["conv2d_142", 0, 0, {}
								], ["conv2d_transpose_6", 0, 0, {}
								]]],
						"config": {
							"name": "add_49",
							"trainable": true
						},
						"class_name": "Add"
					}, {
						"name": "batch_normalization_142",
						"inbound_nodes": [[["add_49", 0, 0, {}
								]]],
						"config": {
							"name": "batch_normalization_142",
							"scale": true,
							"epsilon": 0.001,
							"moving_mean_initializer": {
								"config": {},
								"class_name": "Zeros"
							},
							"gamma_initializer": {
								"config": {},
								"class_name": "Ones"
							},
							"beta_regularizer": null,
							"beta_constraint": null,
							"trainable": true,
							"gamma_regularizer": null,
							"gamma_constraint": null,
							"beta_initializer": {
								"config": {},
								"class_name": "Zeros"
							},
							"momentum": 0.99,
							"axis": -1,
							"center": true,
							"moving_variance_initializer": {
								"config": {},
								"class_name": "Ones"
							}
						},
						"class_name": "BatchNormalization"
					}, {
						"name": "activation_142",
						"inbound_nodes": [[["batch_normalization_142", 0, 0, {}
								]]],
						"config": {
							"name": "activation_142",
							"activation": "relu",
							"trainable": true
						},
						"class_name": "Activation"
					}, {
						"name": "conv2d_143",
						"inbound_nodes": [[["activation_142", 0, 0, {}
								]]],
						"config": {
							"name": "conv2d_143",
							"kernel_initializer": {
								"config": {
									"scale": 1.0,
									"seed": null,
									"mode": "fan_avg",
									"distribution": "uniform"
								},
								"class_name": "VarianceScaling"
							},
							"kernel_regularizer": null,
							"trainable": true,
							"kernel_constraint": null,
							"bias_initializer": {
								"config": {},
								"class_name": "Zeros"
							},
							"use_bias": true,
							"activity_regularizer": null,
							"data_format": "channels_last",
							"dilation_rate": [1, 1],
							"strides": [1, 1],
							"bias_constraint": null,
							"padding": "valid",
							"bias_regularizer": null,
							"activation": "linear",
							"kernel_size": [1, 1],
							"filters": 8
						},
						"class_name": "Conv2D"
					}, {
						"name": "batch_normalization_143",
						"inbound_nodes": [[["conv2d_143", 0, 0, {}
								]]],
						"config": {
							"name": "batch_normalization_143",
							"scale": true,
							"epsilon": 0.001,
							"moving_mean_initializer": {
								"config": {},
								"class_name": "Zeros"
							},
							"gamma_initializer": {
								"config": {},
								"class_name": "Ones"
							},
							"beta_regularizer": null,
							"beta_constraint": null,
							"trainable": true,
							"gamma_regularizer": null,
							"gamma_constraint": null,
							"beta_initializer": {
								"config": {},
								"class_name": "Zeros"
							},
							"momentum": 0.99,
							"axis": -1,
							"center": true,
							"moving_variance_initializer": {
								"config": {},
								"class_name": "Ones"
							}
						},
						"class_name": "BatchNormalization"
					}, {
						"name": "activation_143",
						"inbound_nodes": [[["batch_normalization_143", 0, 0, {}
								]]],
						"config": {
							"name": "activation_143",
							"activation": "relu",
							"trainable": true
						},
						"class_name": "Activation"
					}, {
						"name": "conv2d_144",
						"inbound_nodes": [[["activation_143", 0, 0, {}
								]]],
						"config": {
							"name": "conv2d_144",
							"kernel_initializer": {
								"config": {
									"scale": 1.0,
									"seed": null,
									"mode": "fan_avg",
									"distribution": "uniform"
								},
								"class_name": "VarianceScaling"
							},
							"kernel_regularizer": null,
							"trainable": true,
							"kernel_constraint": null,
							"bias_initializer": {
								"config": {},
								"class_name": "Zeros"
							},
							"use_bias": true,
							"activity_regularizer": null,
							"data_format": "channels_last",
							"dilation_rate": [1, 1],
							"strides": [1, 1],
							"bias_constraint": null,
							"padding": "same",
							"bias_regularizer": null,
							"activation": "linear",
							"kernel_size": [3, 3],
							"filters": 8
						},
						"class_name": "Conv2D"
					}, {
						"name": "batch_normalization_144",
						"inbound_nodes": [[["conv2d_144", 0, 0, {}
								]]],
						"config": {
							"name": "batch_normalization_144",
							"scale": true,
							"epsilon": 0.001,
							"moving_mean_initializer": {
								"config": {},
								"class_name": "Zeros"
							},
							"gamma_initializer": {
								"config": {},
								"class_name": "Ones"
							},
							"beta_regularizer": null,
							"beta_constraint": null,
							"trainable": true,
							"gamma_regularizer": null,
							"gamma_constraint": null,
							"beta_initializer": {
								"config": {},
								"class_name": "Zeros"
							},
							"momentum": 0.99,
							"axis": -1,
							"center": true,
							"moving_variance_initializer": {
								"config": {},
								"class_name": "Ones"
							}
						},
						"class_name": "BatchNormalization"
					}, {
						"name": "activation_144",
						"inbound_nodes": [[["batch_normalization_144", 0, 0, {}
								]]],
						"config": {
							"name": "activation_144",
							"activation": "relu",
							"trainable": true
						},
						"class_name": "Activation"
					}, {
						"name": "conv2d_145",
						"inbound_nodes": [[["activation_144", 0, 0, {}
								]]],
						"config": {
							"name": "conv2d_145",
							"kernel_initializer": {
								"config": {
									"scale": 1.0,
									"seed": null,
									"mode": "fan_avg",
									"distribution": "uniform"
								},
								"class_name": "VarianceScaling"
							},
							"kernel_regularizer": null,
							"trainable": true,
							"kernel_constraint": null,
							"bias_initializer": {
								"config": {},
								"class_name": "Zeros"
							},
							"use_bias": true,
							"activity_regularizer": null,
							"data_format": "channels_last",
							"dilation_rate": [1, 1],
							"strides": [1, 1],
							"bias_constraint": null,
							"padding": "valid",
							"bias_regularizer": null,
							"activation": "linear",
							"kernel_size": [1, 1],
							"filters": 32
						},
						"class_name": "Conv2D"
					}, {
						"name": "add_50",
						"inbound_nodes": [[["conv2d_145", 0, 0, {}
								], ["add_49", 0, 0, {}
								]]],
						"config": {
							"name": "add_50",
							"trainable": true
						},
						"class_name": "Add"
					}, {
						"name": "batch_normalization_145",
						"inbound_nodes": [[["add_50", 0, 0, {}
								]]],
						"config": {
							"name": "batch_normalization_145",
							"scale": true,
							"epsilon": 0.001,
							"moving_mean_initializer": {
								"config": {},
								"class_name": "Zeros"
							},
							"gamma_initializer": {
								"config": {},
								"class_name": "Ones"
							},
							"beta_regularizer": null,
							"beta_constraint": null,
							"trainable": true,
							"gamma_regularizer": null,
							"gamma_constraint": null,
							"beta_initializer": {
								"config": {},
								"class_name": "Zeros"
							},
							"momentum": 0.99,
							"axis": -1,
							"center": true,
							"moving_variance_initializer": {
								"config": {},
								"class_name": "Ones"
							}
						},
						"class_name": "BatchNormalization"
					}, {
						"name": "activation_145",
						"inbound_nodes": [[["batch_normalization_145", 0, 0, {}
								]]],
						"config": {
							"name": "activation_145",
							"activation": "relu",
							"trainable": true
						},
						"class_name": "Activation"
					}, {
						"name": "conv2d_146",
						"inbound_nodes": [[["activation_145", 0, 0, {}
								]]],
						"config": {
							"name": "conv2d_146",
							"kernel_initializer": {
								"config": {
									"scale": 1.0,
									"seed": null,
									"mode": "fan_avg",
									"distribution": "uniform"
								},
								"class_name": "VarianceScaling"
							},
							"kernel_regularizer": null,
							"trainable": true,
							"kernel_constraint": null,
							"bias_initializer": {
								"config": {},
								"class_name": "Zeros"
							},
							"use_bias": true,
							"activity_regularizer": null,
							"data_format": "channels_last",
							"dilation_rate": [1, 1],
							"strides": [1, 1],
							"bias_constraint": null,
							"padding": "valid",
							"bias_regularizer": null,
							"activation": "linear",
							"kernel_size": [1, 1],
							"filters": 8
						},
						"class_name": "Conv2D"
					}, {
						"name": "batch_normalization_146",
						"inbound_nodes": [[["conv2d_146", 0, 0, {}
								]]],
						"config": {
							"name": "batch_normalization_146",
							"scale": true,
							"epsilon": 0.001,
							"moving_mean_initializer": {
								"config": {},
								"class_name": "Zeros"
							},
							"gamma_initializer": {
								"config": {},
								"class_name": "Ones"
							},
							"beta_regularizer": null,
							"beta_constraint": null,
							"trainable": true,
							"gamma_regularizer": null,
							"gamma_constraint": null,
							"beta_initializer": {
								"config": {},
								"class_name": "Zeros"
							},
							"momentum": 0.99,
							"axis": -1,
							"center": true,
							"moving_variance_initializer": {
								"config": {},
								"class_name": "Ones"
							}
						},
						"class_name": "BatchNormalization"
					}, {
						"name": "activation_146",
						"inbound_nodes": [[["batch_normalization_146", 0, 0, {}
								]]],
						"config": {
							"name": "activation_146",
							"activation": "relu",
							"trainable": true
						},
						"class_name": "Activation"
					}, {
						"name": "conv2d_147",
						"inbound_nodes": [[["activation_146", 0, 0, {}
								]]],
						"config": {
							"name": "conv2d_147",
							"kernel_initializer": {
								"config": {
									"scale": 1.0,
									"seed": null,
									"mode": "fan_avg",
									"distribution": "uniform"
								},
								"class_name": "VarianceScaling"
							},
							"kernel_regularizer": null,
							"trainable": true,
							"kernel_constraint": null,
							"bias_initializer": {
								"config": {},
								"class_name": "Zeros"
							},
							"use_bias": true,
							"activity_regularizer": null,
							"data_format": "channels_last",
							"dilation_rate": [1, 1],
							"strides": [1, 1],
							"bias_constraint": null,
							"padding": "same",
							"bias_regularizer": null,
							"activation": "linear",
							"kernel_size": [3, 3],
							"filters": 8
						},
						"class_name": "Conv2D"
					}, {
						"name": "batch_normalization_147",
						"inbound_nodes": [[["conv2d_147", 0, 0, {}
								]]],
						"config": {
							"name": "batch_normalization_147",
							"scale": true,
							"epsilon": 0.001,
							"moving_mean_initializer": {
								"config": {},
								"class_name": "Zeros"
							},
							"gamma_initializer": {
								"config": {},
								"class_name": "Ones"
							},
							"beta_regularizer": null,
							"beta_constraint": null,
							"trainable": true,
							"gamma_regularizer": null,
							"gamma_constraint": null,
							"beta_initializer": {
								"config": {},
								"class_name": "Zeros"
							},
							"momentum": 0.99,
							"axis": -1,
							"center": true,
							"moving_variance_initializer": {
								"config": {},
								"class_name": "Ones"
							}
						},
						"class_name": "BatchNormalization"
					}, {
						"name": "activation_147",
						"inbound_nodes": [[["batch_normalization_147", 0, 0, {}
								]]],
						"config": {
							"name": "activation_147",
							"activation": "relu",
							"trainable": true
						},
						"class_name": "Activation"
					}, {
						"name": "conv2d_148",
						"inbound_nodes": [[["activation_147", 0, 0, {}
								]]],
						"config": {
							"name": "conv2d_148",
							"kernel_initializer": {
								"config": {
									"scale": 1.0,
									"seed": null,
									"mode": "fan_avg",
									"distribution": "uniform"
								},
								"class_name": "VarianceScaling"
							},
							"kernel_regularizer": null,
							"trainable": true,
							"kernel_constraint": null,
							"bias_initializer": {
								"config": {},
								"class_name": "Zeros"
							},
							"use_bias": true,
							"activity_regularizer": null,
							"data_format": "channels_last",
							"dilation_rate": [1, 1],
							"strides": [1, 1],
							"bias_constraint": null,
							"padding": "valid",
							"bias_regularizer": null,
							"activation": "linear",
							"kernel_size": [1, 1],
							"filters": 32
						},
						"class_name": "Conv2D"
					}, {
						"name": "add_51",
						"inbound_nodes": [[["conv2d_148", 0, 0, {}
								], ["add_50", 0, 0, {}
								]]],
						"config": {
							"name": "add_51",
							"trainable": true
						},
						"class_name": "Add"
					}, {
						"name": "batch_normalization_148",
						"inbound_nodes": [[["add_51", 0, 0, {}
								]]],
						"config": {
							"name": "batch_normalization_148",
							"scale": true,
							"epsilon": 0.001,
							"moving_mean_initializer": {
								"config": {},
								"class_name": "Zeros"
							},
							"gamma_initializer": {
								"config": {},
								"class_name": "Ones"
							},
							"beta_regularizer": null,
							"beta_constraint": null,
							"trainable": true,
							"gamma_regularizer": null,
							"gamma_constraint": null,
							"beta_initializer": {
								"config": {},
								"class_name": "Zeros"
							},
							"momentum": 0.99,
							"axis": -1,
							"center": true,
							"moving_variance_initializer": {
								"config": {},
								"class_name": "Ones"
							}
						},
						"class_name": "BatchNormalization"
					}, {
						"name": "activation_148",
						"inbound_nodes": [[["batch_normalization_148", 0, 0, {}
								]]],
						"config": {
							"name": "activation_148",
							"activation": "relu",
							"trainable": true
						},
						"class_name": "Activation"
					}, {
						"name": "conv2d_149",
						"inbound_nodes": [[["activation_148", 0, 0, {}
								]]],
						"config": {
							"name": "conv2d_149",
							"kernel_initializer": {
								"config": {
									"scale": 1.0,
									"seed": null,
									"mode": "fan_avg",
									"distribution": "uniform"
								},
								"class_name": "VarianceScaling"
							},
							"kernel_regularizer": null,
							"trainable": true,
							"kernel_constraint": null,
							"bias_initializer": {
								"config": {},
								"class_name": "Zeros"
							},
							"use_bias": true,
							"activity_regularizer": null,
							"data_format": "channels_last",
							"dilation_rate": [1, 1],
							"strides": [1, 1],
							"bias_constraint": null,
							"padding": "valid",
							"bias_regularizer": null,
							"activation": "linear",
							"kernel_size": [1, 1],
							"filters": 8
						},
						"class_name": "Conv2D"
					}, {
						"name": "batch_normalization_149",
						"inbound_nodes": [[["conv2d_149", 0, 0, {}
								]]],
						"config": {
							"name": "batch_normalization_149",
							"scale": true,
							"epsilon": 0.001,
							"moving_mean_initializer": {
								"config": {},
								"class_name": "Zeros"
							},
							"gamma_initializer": {
								"config": {},
								"class_name": "Ones"
							},
							"beta_regularizer": null,
							"beta_constraint": null,
							"trainable": true,
							"gamma_regularizer": null,
							"gamma_constraint": null,
							"beta_initializer": {
								"config": {},
								"class_name": "Zeros"
							},
							"momentum": 0.99,
							"axis": -1,
							"center": true,
							"moving_variance_initializer": {
								"config": {},
								"class_name": "Ones"
							}
						},
						"class_name": "BatchNormalization"
					}, {
						"name": "activation_149",
						"inbound_nodes": [[["batch_normalization_149", 0, 0, {}
								]]],
						"config": {
							"name": "activation_149",
							"activation": "relu",
							"trainable": true
						},
						"class_name": "Activation"
					}, {
						"name": "conv2d_150",
						"inbound_nodes": [[["activation_149", 0, 0, {}
								]]],
						"config": {
							"name": "conv2d_150",
							"kernel_initializer": {
								"config": {
									"scale": 1.0,
									"seed": null,
									"mode": "fan_avg",
									"distribution": "uniform"
								},
								"class_name": "VarianceScaling"
							},
							"kernel_regularizer": null,
							"trainable": true,
							"kernel_constraint": null,
							"bias_initializer": {
								"config": {},
								"class_name": "Zeros"
							},
							"use_bias": true,
							"activity_regularizer": null,
							"data_format": "channels_last",
							"dilation_rate": [1, 1],
							"strides": [1, 1],
							"bias_constraint": null,
							"padding": "same",
							"bias_regularizer": null,
							"activation": "linear",
							"kernel_size": [3, 3],
							"filters": 8
						},
						"class_name": "Conv2D"
					}, {
						"name": "batch_normalization_150",
						"inbound_nodes": [[["conv2d_150", 0, 0, {}
								]]],
						"config": {
							"name": "batch_normalization_150",
							"scale": true,
							"epsilon": 0.001,
							"moving_mean_initializer": {
								"config": {},
								"class_name": "Zeros"
							},
							"gamma_initializer": {
								"config": {},
								"class_name": "Ones"
							},
							"beta_regularizer": null,
							"beta_constraint": null,
							"trainable": true,
							"gamma_regularizer": null,
							"gamma_constraint": null,
							"beta_initializer": {
								"config": {},
								"class_name": "Zeros"
							},
							"momentum": 0.99,
							"axis": -1,
							"center": true,
							"moving_variance_initializer": {
								"config": {},
								"class_name": "Ones"
							}
						},
						"class_name": "BatchNormalization"
					}, {
						"name": "activation_150",
						"inbound_nodes": [[["batch_normalization_150", 0, 0, {}
								]]],
						"config": {
							"name": "activation_150",
							"activation": "relu",
							"trainable": true
						},
						"class_name": "Activation"
					}, {
						"name": "conv2d_151",
						"inbound_nodes": [[["activation_150", 0, 0, {}
								]]],
						"config": {
							"name": "conv2d_151",
							"kernel_initializer": {
								"config": {
									"scale": 1.0,
									"seed": null,
									"mode": "fan_avg",
									"distribution": "uniform"
								},
								"class_name": "VarianceScaling"
							},
							"kernel_regularizer": null,
							"trainable": true,
							"kernel_constraint": null,
							"bias_initializer": {
								"config": {},
								"class_name": "Zeros"
							},
							"use_bias": true,
							"activity_regularizer": null,
							"data_format": "channels_last",
							"dilation_rate": [1, 1],
							"strides": [1, 1],
							"bias_constraint": null,
							"padding": "valid",
							"bias_regularizer": null,
							"activation": "linear",
							"kernel_size": [1, 1],
							"filters": 32
						},
						"class_name": "Conv2D"
					}, {
						"name": "add_52",
						"inbound_nodes": [[["conv2d_151", 0, 0, {}
								], ["add_51", 0, 0, {}
								]]],
						"config": {
							"name": "add_52",
							"trainable": true
						},
						"class_name": "Add"
					}, {
						"name": "add_53",
						"inbound_nodes": [[["add_52", 0, 0, {}
								], ["add_4", 0, 0, {}
								]]],
						"config": {
							"name": "add_53",
							"trainable": true
						},
						"class_name": "Add"
					}, {
						"name": "batch_normalization_151",
						"inbound_nodes": [[["add_53", 0, 0, {}
								]]],
						"config": {
							"name": "batch_normalization_151",
							"scale": true,
							"epsilon": 0.001,
							"moving_mean_initializer": {
								"config": {},
								"class_name": "Zeros"
							},
							"gamma_initializer": {
								"config": {},
								"class_name": "Ones"
							},
							"beta_regularizer": null,
							"beta_constraint": null,
							"trainable": true,
							"gamma_regularizer": null,
							"gamma_constraint": null,
							"beta_initializer": {
								"config": {},
								"class_name": "Zeros"
							},
							"momentum": 0.99,
							"axis": -1,
							"center": true,
							"moving_variance_initializer": {
								"config": {},
								"class_name": "Ones"
							}
						},
						"class_name": "BatchNormalization"
					}, {
						"name": "activation_151",
						"inbound_nodes": [[["batch_normalization_151", 0, 0, {}
								]]],
						"config": {
							"name": "activation_151",
							"activation": "relu",
							"trainable": true
						},
						"class_name": "Activation"
					}, {
						"name": "conv2d_152",
						"inbound_nodes": [[["activation_151", 0, 0, {}
								]]],
						"config": {
							"name": "conv2d_152",
							"kernel_initializer": {
								"config": {
									"scale": 1.0,
									"seed": null,
									"mode": "fan_avg",
									"distribution": "uniform"
								},
								"class_name": "VarianceScaling"
							},
							"kernel_regularizer": null,
							"trainable": true,
							"kernel_constraint": null,
							"bias_initializer": {
								"config": {},
								"class_name": "Zeros"
							},
							"use_bias": true,
							"activity_regularizer": null,
							"data_format": "channels_last",
							"dilation_rate": [1, 1],
							"strides": [1, 1],
							"bias_constraint": null,
							"padding": "valid",
							"bias_regularizer": null,
							"activation": "linear",
							"kernel_size": [1, 1],
							"filters": 4
						},
						"class_name": "Conv2D"
					}, {
						"name": "batch_normalization_152",
						"inbound_nodes": [[["conv2d_152", 0, 0, {}
								]]],
						"config": {
							"name": "batch_normalization_152",
							"scale": true,
							"epsilon": 0.001,
							"moving_mean_initializer": {
								"config": {},
								"class_name": "Zeros"
							},
							"gamma_initializer": {
								"config": {},
								"class_name": "Ones"
							},
							"beta_regularizer": null,
							"beta_constraint": null,
							"trainable": true,
							"gamma_regularizer": null,
							"gamma_constraint": null,
							"beta_initializer": {
								"config": {},
								"class_name": "Zeros"
							},
							"momentum": 0.99,
							"axis": -1,
							"center": true,
							"moving_variance_initializer": {
								"config": {},
								"class_name": "Ones"
							}
						},
						"class_name": "BatchNormalization"
					}, {
						"name": "activation_152",
						"inbound_nodes": [[["batch_normalization_152", 0, 0, {}
								]]],
						"config": {
							"name": "activation_152",
							"activation": "relu",
							"trainable": true
						},
						"class_name": "Activation"
					}, {
						"name": "conv2d_153",
						"inbound_nodes": [[["activation_152", 0, 0, {}
								]]],
						"config": {
							"name": "conv2d_153",
							"kernel_initializer": {
								"config": {
									"scale": 1.0,
									"seed": null,
									"mode": "fan_avg",
									"distribution": "uniform"
								},
								"class_name": "VarianceScaling"
							},
							"kernel_regularizer": null,
							"trainable": true,
							"kernel_constraint": null,
							"bias_initializer": {
								"config": {},
								"class_name": "Zeros"
							},
							"use_bias": true,
							"activity_regularizer": null,
							"data_format": "channels_last",
							"dilation_rate": [1, 1],
							"strides": [1, 1],
							"bias_constraint": null,
							"padding": "same",
							"bias_regularizer": null,
							"activation": "linear",
							"kernel_size": [3, 3],
							"filters": 4
						},
						"class_name": "Conv2D"
					}, {
						"name": "batch_normalization_153",
						"inbound_nodes": [[["conv2d_153", 0, 0, {}
								]]],
						"config": {
							"name": "batch_normalization_153",
							"scale": true,
							"epsilon": 0.001,
							"moving_mean_initializer": {
								"config": {},
								"class_name": "Zeros"
							},
							"gamma_initializer": {
								"config": {},
								"class_name": "Ones"
							},
							"beta_regularizer": null,
							"beta_constraint": null,
							"trainable": true,
							"gamma_regularizer": null,
							"gamma_constraint": null,
							"beta_initializer": {
								"config": {},
								"class_name": "Zeros"
							},
							"momentum": 0.99,
							"axis": -1,
							"center": true,
							"moving_variance_initializer": {
								"config": {},
								"class_name": "Ones"
							}
						},
						"class_name": "BatchNormalization"
					}, {
						"name": "activation_153",
						"inbound_nodes": [[["batch_normalization_153", 0, 0, {}
								]]],
						"config": {
							"name": "activation_153",
							"activation": "relu",
							"trainable": true
						},
						"class_name": "Activation"
					}, {
						"name": "conv2d_154",
						"inbound_nodes": [[["activation_153", 0, 0, {}
								]]],
						"config": {
							"name": "conv2d_154",
							"kernel_initializer": {
								"config": {
									"scale": 1.0,
									"seed": null,
									"mode": "fan_avg",
									"distribution": "uniform"
								},
								"class_name": "VarianceScaling"
							},
							"kernel_regularizer": null,
							"trainable": true,
							"kernel_constraint": null,
							"bias_initializer": {
								"config": {},
								"class_name": "Zeros"
							},
							"use_bias": true,
							"activity_regularizer": null,
							"data_format": "channels_last",
							"dilation_rate": [1, 1],
							"strides": [1, 1],
							"bias_constraint": null,
							"padding": "valid",
							"bias_regularizer": null,
							"activation": "linear",
							"kernel_size": [1, 1],
							"filters": 16
						},
						"class_name": "Conv2D"
					}, {
						"name": "conv2d_155",
						"inbound_nodes": [[["add_53", 0, 0, {}
								]]],
						"config": {
							"name": "conv2d_155",
							"kernel_initializer": {
								"config": {
									"scale": 1.0,
									"seed": null,
									"mode": "fan_avg",
									"distribution": "uniform"
								},
								"class_name": "VarianceScaling"
							},
							"kernel_regularizer": null,
							"trainable": true,
							"kernel_constraint": null,
							"bias_initializer": {
								"config": {},
								"class_name": "Zeros"
							},
							"use_bias": true,
							"activity_regularizer": null,
							"data_format": "channels_last",
							"dilation_rate": [1, 1],
							"strides": [1, 1],
							"bias_constraint": null,
							"padding": "valid",
							"bias_regularizer": null,
							"activation": "linear",
							"kernel_size": [1, 1],
							"filters": 16
						},
						"class_name": "Conv2D"
					}, {
						"name": "add_54",
						"inbound_nodes": [[["conv2d_154", 0, 0, {}
								], ["conv2d_155", 0, 0, {}
								]]],
						"config": {
							"name": "add_54",
							"trainable": true
						},
						"class_name": "Add"
					}, {
						"name": "batch_normalization_154",
						"inbound_nodes": [[["add_54", 0, 0, {}
								]]],
						"config": {
							"name": "batch_normalization_154",
							"scale": true,
							"epsilon": 0.001,
							"moving_mean_initializer": {
								"config": {},
								"class_name": "Zeros"
							},
							"gamma_initializer": {
								"config": {},
								"class_name": "Ones"
							},
							"beta_regularizer": null,
							"beta_constraint": null,
							"trainable": true,
							"gamma_regularizer": null,
							"gamma_constraint": null,
							"beta_initializer": {
								"config": {},
								"class_name": "Zeros"
							},
							"momentum": 0.99,
							"axis": -1,
							"center": true,
							"moving_variance_initializer": {
								"config": {},
								"class_name": "Ones"
							}
						},
						"class_name": "BatchNormalization"
					}, {
						"name": "activation_154",
						"inbound_nodes": [[["batch_normalization_154", 0, 0, {}
								]]],
						"config": {
							"name": "activation_154",
							"activation": "relu",
							"trainable": true
						},
						"class_name": "Activation"
					}, {
						"name": "conv2d_156",
						"inbound_nodes": [[["activation_154", 0, 0, {}
								]]],
						"config": {
							"name": "conv2d_156",
							"kernel_initializer": {
								"config": {
									"scale": 1.0,
									"seed": null,
									"mode": "fan_avg",
									"distribution": "uniform"
								},
								"class_name": "VarianceScaling"
							},
							"kernel_regularizer": null,
							"trainable": true,
							"kernel_constraint": null,
							"bias_initializer": {
								"config": {},
								"class_name": "Zeros"
							},
							"use_bias": true,
							"activity_regularizer": null,
							"data_format": "channels_last",
							"dilation_rate": [1, 1],
							"strides": [1, 1],
							"bias_constraint": null,
							"padding": "valid",
							"bias_regularizer": null,
							"activation": "linear",
							"kernel_size": [1, 1],
							"filters": 4
						},
						"class_name": "Conv2D"
					}, {
						"name": "batch_normalization_155",
						"inbound_nodes": [[["conv2d_156", 0, 0, {}
								]]],
						"config": {
							"name": "batch_normalization_155",
							"scale": true,
							"epsilon": 0.001,
							"moving_mean_initializer": {
								"config": {},
								"class_name": "Zeros"
							},
							"gamma_initializer": {
								"config": {},
								"class_name": "Ones"
							},
							"beta_regularizer": null,
							"beta_constraint": null,
							"trainable": true,
							"gamma_regularizer": null,
							"gamma_constraint": null,
							"beta_initializer": {
								"config": {},
								"class_name": "Zeros"
							},
							"momentum": 0.99,
							"axis": -1,
							"center": true,
							"moving_variance_initializer": {
								"config": {},
								"class_name": "Ones"
							}
						},
						"class_name": "BatchNormalization"
					}, {
						"name": "activation_155",
						"inbound_nodes": [[["batch_normalization_155", 0, 0, {}
								]]],
						"config": {
							"name": "activation_155",
							"activation": "relu",
							"trainable": true
						},
						"class_name": "Activation"
					}, {
						"name": "conv2d_157",
						"inbound_nodes": [[["activation_155", 0, 0, {}
								]]],
						"config": {
							"name": "conv2d_157",
							"kernel_initializer": {
								"config": {
									"scale": 1.0,
									"seed": null,
									"mode": "fan_avg",
									"distribution": "uniform"
								},
								"class_name": "VarianceScaling"
							},
							"kernel_regularizer": null,
							"trainable": true,
							"kernel_constraint": null,
							"bias_initializer": {
								"config": {},
								"class_name": "Zeros"
							},
							"use_bias": true,
							"activity_regularizer": null,
							"data_format": "channels_last",
							"dilation_rate": [1, 1],
							"strides": [1, 1],
							"bias_constraint": null,
							"padding": "same",
							"bias_regularizer": null,
							"activation": "linear",
							"kernel_size": [3, 3],
							"filters": 4
						},
						"class_name": "Conv2D"
					}, {
						"name": "batch_normalization_156",
						"inbound_nodes": [[["conv2d_157", 0, 0, {}
								]]],
						"config": {
							"name": "batch_normalization_156",
							"scale": true,
							"epsilon": 0.001,
							"moving_mean_initializer": {
								"config": {},
								"class_name": "Zeros"
							},
							"gamma_initializer": {
								"config": {},
								"class_name": "Ones"
							},
							"beta_regularizer": null,
							"beta_constraint": null,
							"trainable": true,
							"gamma_regularizer": null,
							"gamma_constraint": null,
							"beta_initializer": {
								"config": {},
								"class_name": "Zeros"
							},
							"momentum": 0.99,
							"axis": -1,
							"center": true,
							"moving_variance_initializer": {
								"config": {},
								"class_name": "Ones"
							}
						},
						"class_name": "BatchNormalization"
					}, {
						"name": "activation_156",
						"inbound_nodes": [[["batch_normalization_156", 0, 0, {}
								]]],
						"config": {
							"name": "activation_156",
							"activation": "relu",
							"trainable": true
						},
						"class_name": "Activation"
					}, {
						"name": "conv2d_158",
						"inbound_nodes": [[["activation_156", 0, 0, {}
								]]],
						"config": {
							"name": "conv2d_158",
							"kernel_initializer": {
								"config": {
									"scale": 1.0,
									"seed": null,
									"mode": "fan_avg",
									"distribution": "uniform"
								},
								"class_name": "VarianceScaling"
							},
							"kernel_regularizer": null,
							"trainable": true,
							"kernel_constraint": null,
							"bias_initializer": {
								"config": {},
								"class_name": "Zeros"
							},
							"use_bias": true,
							"activity_regularizer": null,
							"data_format": "channels_last",
							"dilation_rate": [1, 1],
							"strides": [1, 1],
							"bias_constraint": null,
							"padding": "valid",
							"bias_regularizer": null,
							"activation": "linear",
							"kernel_size": [1, 1],
							"filters": 16
						},
						"class_name": "Conv2D"
					}, {
						"name": "add_55",
						"inbound_nodes": [[["conv2d_158", 0, 0, {}
								], ["add_54", 0, 0, {}
								]]],
						"config": {
							"name": "add_55",
							"trainable": true
						},
						"class_name": "Add"
					}, {
						"name": "batch_normalization_157",
						"inbound_nodes": [[["add_55", 0, 0, {}
								]]],
						"config": {
							"name": "batch_normalization_157",
							"scale": true,
							"epsilon": 0.001,
							"moving_mean_initializer": {
								"config": {},
								"class_name": "Zeros"
							},
							"gamma_initializer": {
								"config": {},
								"class_name": "Ones"
							},
							"beta_regularizer": null,
							"beta_constraint": null,
							"trainable": true,
							"gamma_regularizer": null,
							"gamma_constraint": null,
							"beta_initializer": {
								"config": {},
								"class_name": "Zeros"
							},
							"momentum": 0.99,
							"axis": -1,
							"center": true,
							"moving_variance_initializer": {
								"config": {},
								"class_name": "Ones"
							}
						},
						"class_name": "BatchNormalization"
					}, {
						"name": "activation_157",
						"inbound_nodes": [[["batch_normalization_157", 0, 0, {}
								]]],
						"config": {
							"name": "activation_157",
							"activation": "relu",
							"trainable": true
						},
						"class_name": "Activation"
					}, {
						"name": "conv2d_159",
						"inbound_nodes": [[["activation_157", 0, 0, {}
								]]],
						"config": {
							"name": "conv2d_159",
							"kernel_initializer": {
								"config": {
									"scale": 1.0,
									"seed": null,
									"mode": "fan_avg",
									"distribution": "uniform"
								},
								"class_name": "VarianceScaling"
							},
							"kernel_regularizer": null,
							"trainable": true,
							"kernel_constraint": null,
							"bias_initializer": {
								"config": {},
								"class_name": "Zeros"
							},
							"use_bias": true,
							"activity_regularizer": null,
							"data_format": "channels_last",
							"dilation_rate": [1, 1],
							"strides": [1, 1],
							"bias_constraint": null,
							"padding": "valid",
							"bias_regularizer": null,
							"activation": "linear",
							"kernel_size": [1, 1],
							"filters": 4
						},
						"class_name": "Conv2D"
					}, {
						"name": "batch_normalization_158",
						"inbound_nodes": [[["conv2d_159", 0, 0, {}
								]]],
						"config": {
							"name": "batch_normalization_158",
							"scale": true,
							"epsilon": 0.001,
							"moving_mean_initializer": {
								"config": {},
								"class_name": "Zeros"
							},
							"gamma_initializer": {
								"config": {},
								"class_name": "Ones"
							},
							"beta_regularizer": null,
							"beta_constraint": null,
							"trainable": true,
							"gamma_regularizer": null,
							"gamma_constraint": null,
							"beta_initializer": {
								"config": {},
								"class_name": "Zeros"
							},
							"momentum": 0.99,
							"axis": -1,
							"center": true,
							"moving_variance_initializer": {
								"config": {},
								"class_name": "Ones"
							}
						},
						"class_name": "BatchNormalization"
					}, {
						"name": "activation_158",
						"inbound_nodes": [[["batch_normalization_158", 0, 0, {}
								]]],
						"config": {
							"name": "activation_158",
							"activation": "relu",
							"trainable": true
						},
						"class_name": "Activation"
					}, {
						"name": "conv2d_160",
						"inbound_nodes": [[["activation_158", 0, 0, {}
								]]],
						"config": {
							"name": "conv2d_160",
							"kernel_initializer": {
								"config": {
									"scale": 1.0,
									"seed": null,
									"mode": "fan_avg",
									"distribution": "uniform"
								},
								"class_name": "VarianceScaling"
							},
							"kernel_regularizer": null,
							"trainable": true,
							"kernel_constraint": null,
							"bias_initializer": {
								"config": {},
								"class_name": "Zeros"
							},
							"use_bias": true,
							"activity_regularizer": null,
							"data_format": "channels_last",
							"dilation_rate": [1, 1],
							"strides": [1, 1],
							"bias_constraint": null,
							"padding": "same",
							"bias_regularizer": null,
							"activation": "linear",
							"kernel_size": [3, 3],
							"filters": 4
						},
						"class_name": "Conv2D"
					}, {
						"name": "batch_normalization_159",
						"inbound_nodes": [[["conv2d_160", 0, 0, {}
								]]],
						"config": {
							"name": "batch_normalization_159",
							"scale": true,
							"epsilon": 0.001,
							"moving_mean_initializer": {
								"config": {},
								"class_name": "Zeros"
							},
							"gamma_initializer": {
								"config": {},
								"class_name": "Ones"
							},
							"beta_regularizer": null,
							"beta_constraint": null,
							"trainable": true,
							"gamma_regularizer": null,
							"gamma_constraint": null,
							"beta_initializer": {
								"config": {},
								"class_name": "Zeros"
							},
							"momentum": 0.99,
							"axis": -1,
							"center": true,
							"moving_variance_initializer": {
								"config": {},
								"class_name": "Ones"
							}
						},
						"class_name": "BatchNormalization"
					}, {
						"name": "activation_159",
						"inbound_nodes": [[["batch_normalization_159", 0, 0, {}
								]]],
						"config": {
							"name": "activation_159",
							"activation": "relu",
							"trainable": true
						},
						"class_name": "Activation"
					}, {
						"name": "conv2d_161",
						"inbound_nodes": [[["activation_159", 0, 0, {}
								]]],
						"config": {
							"name": "conv2d_161",
							"kernel_initializer": {
								"config": {
									"scale": 1.0,
									"seed": null,
									"mode": "fan_avg",
									"distribution": "uniform"
								},
								"class_name": "VarianceScaling"
							},
							"kernel_regularizer": null,
							"trainable": true,
							"kernel_constraint": null,
							"bias_initializer": {
								"config": {},
								"class_name": "Zeros"
							},
							"use_bias": true,
							"activity_regularizer": null,
							"data_format": "channels_last",
							"dilation_rate": [1, 1],
							"strides": [1, 1],
							"bias_constraint": null,
							"padding": "valid",
							"bias_regularizer": null,
							"activation": "linear",
							"kernel_size": [1, 1],
							"filters": 16
						},
						"class_name": "Conv2D"
					}, {
						"name": "add_56",
						"inbound_nodes": [[["conv2d_161", 0, 0, {}
								], ["add_55", 0, 0, {}
								]]],
						"config": {
							"name": "add_56",
							"trainable": true
						},
						"class_name": "Add"
					}, {
						"name": "conv2d_162",
						"inbound_nodes": [[["add_56", 0, 0, {}
								]]],
						"config": {
							"name": "conv2d_162",
							"kernel_initializer": {
								"config": {
									"scale": 1.0,
									"seed": null,
									"mode": "fan_avg",
									"distribution": "uniform"
								},
								"class_name": "VarianceScaling"
							},
							"kernel_regularizer": null,
							"trainable": true,
							"kernel_constraint": null,
							"bias_initializer": {
								"config": {},
								"class_name": "Zeros"
							},
							"use_bias": true,
							"activity_regularizer": null,
							"data_format": "channels_last",
							"dilation_rate": [1, 1],
							"strides": [1, 1],
							"bias_constraint": null,
							"padding": "valid",
							"bias_regularizer": null,
							"activation": "tanh",
							"kernel_size": [1, 1],
							"filters": 1
						},
						"class_name": "Conv2D"
					}
				],
				"output_layers": [["conv2d_162", 0, 0]],
				"input_layers": [["input_1", 0, 0]]
			},
			"class_name": "Model"
		},
		"backend": "tensorflow"
	}
}
